models/pathology_gnn_weighted.pth (torch, 13321 bytes, 6 tensors)

conv1.bias f4 [64]
0	0xbce7a1ea	-0.028275449
1	0x3ed6c984	0.4195062
2	0xbf205a91	-0.62638193
3	0x3c09c9f6	0.008409968
4	0xbca9f1c8	-0.020745173
5	0xbc977d9f	-0.018492518
6	0xbf052ae1	-0.52018553
7	0x3f034398	0.51275015
8	0xbd7e76af	-0.062124904
9	0xbf06650e	-0.5249795
10	0x3f27f6ce	0.6561097
11	0x00000000	0.0
12	0x00000000	0.0
13	0xbd139d19	-0.036038492
14	0x00000000	0.0
15	0xbf4d1896	-0.8011564
16	0x00000000	0.0
17	0xbce75f33	-0.028243637
18	0x00000000	0.0
19	0x00000000	0.0
20	0x3f16eccf	0.5895509
21	0xbf3332b7	-0.6999926
22	0x00000000	0.0
23	0xbdc6a33d	-0.09699104
24	0xbd9b89d2	-0.075946465
25	0xbe2abba7	-0.16673146
26	0x00000000	0.0
27	0xbed70f4c	-0.42003858
28	0x3f2a6924	0.6656668
29	0x00000000	0.0
30	0xbf3916d2	-0.72300446
31	0x3f2b836a	0.66997397
32	0x3f16672c	0.5875118
33	0x3f46af87	0.77611583
34	0x3ef7af01	0.48375705
35	0x00000000	0.0
36	0x00000000	0.0
37	0xbd7e9c9e	-0.06216108
38	0x00000000	0.0
39	0x3f3428da	0.70374835
40	0xbf14973c	-0.58043265
41	0xbc75a1ff	-0.014992236
42	0x3dfa9ded	0.12237153
43	0xbeffbedf	-0.4995031
44	0xbe4948b0	-0.19656634
45	0xbcc819ba	-0.02442633
46	0x00000000	0.0
47	0x00000000	0.0
48	0xbf007b9c	-0.5018861
49	0xbf5baa58	-0.858068
50	0xbeda8744	-0.42681324
51	0x3f435f89	0.7631765
52	0x3f23c8e1	0.6397839
53	0xbda791e1	-0.08182121
54	0xbd3d65d5	-0.046239693
55	0x00000000	0.0
56	0xbd4ca1c1	-0.049958948
57	0x3f0655c7	0.52474636
58	0xbeaaf050	-0.3338647
59	0x00000000	0.0
60	0x3f3356f1	0.7005454
61	0x3be5acb1	0.007009112
62	0x00000000	0.0
63	0x00000000	0.0

conv1.lin.weight f4 [64, 3]
0	0xbe7df7e3	-0.24801593
1	0x3d90c600	0.070690155
2	0x3d00faec	0.031489298
3	0xbf8bde4b	-1.0927213
4	0xbf96f4c7	-1.179345
5	0x3fb3306c	1.3999152
6	0x3e0394ee	0.12849781
7	0xbe6efee8	-0.23339427
8	0xbef79c8b	-0.4836162
9	0x3eae3040	0.34021187
10	0xbffa3f99	-1.9550658
11	0xc04893a9	-3.1340125
12	0xbd2b81bb	-0.041871767
13	0xbdfbb22a	-0.122898415
14	0x3c7a91f7	0.01529359
15	0xbda08159	-0.07837171
16	0x3d94c35e	0.07263826
17	0xbe6f032b	-0.23341052
18	0x3e0048a7	0.12527715
19	0x3e73f371	0.23823334
20	0xbf17a09d	-0.5922945
21	0xbfd87ac5	-1.6912466
22	0x3e523bc4	0.20530611
23	0x3f52fcf5	0.8241723
24	0xbe7acc8a	-0.24492088
25	0x3e3c7cbe	0.1840696
26	0xbd7ce6d1	-0.06174356
27	0x3e698693	0.22805242
28	0xbf55d8ec	-0.8353412
29	0xbfc0dac9	-1.5066768
30	0xbf9bc5cb	-1.2169737
31	0xbd7ee178	-0.062226743
32	0x3ee44615	0.44584718
33	0xbe6ee3e7	-0.23329125
34	0xbe739824	-0.23788506
35	0xbe379684	-0.17928511
36	0xbe5b46d3	-0.21413736
37	0xbe49b83e	-0.19699189
38	0xbde2a731	-0.110670455
39	0xbe91d878	-0.28485465
40	0xbe37b286	-0.17939195
41	0x3e302d12	0.17204693
42	0xbe6f4e0e	-0.23369619
43	0xbe1f313f	-0.1554613
44	0xbe393006	-0.18084726
45	0x3f3c2325	0.73491126
46	0xc06ea6d8	-3.7289333
47	0xbe8b84e6	-0.2724983
48	0xbdfc5d64	-0.123225
49	0xbe42f4f2	-0.19038752
50	0xbdccc98a	-0.09999378
51	0xbcd37a01	-0.025815012
52	0xbdb371d2	-0.08761944
53	0xbe46147a	-0.19343749
54	0xbe658aad	-0.22416182
55	0xbe3a1869	-0.18173374
56	0x3ca712a2	0.020394627
57	0xbe7cecca	-0.24699703
58	0xbd31a6df	-0.04337203
59	0xbd328c36	-0.043590747
60	0xbf9bfccf	-1.2186526
61	0xbd40c561	-0.047063235
62	0x3f701964	0.93788743
63	0x3e121fec	0.1426999
64	0xbf78406e	-0.9697331
65	0xbe2333fa	-0.15937796
66	0xbd79e171	-0.061006013
67	0xbcd89a33	-0.026440715
68	0xbe8fdad6	-0.28096646
69	0xbead98e8	-0.3390572
70	0x3e3503be	0.17677209
71	0xbda2f22f	-0.07956349
72	0xbd0a1204	-0.033708587
73	0x3ddd3f09	0.108030386
74	0xbe33a9de	-0.17545268
75	0x3be923da	0.0071148695
76	0xbe95a74a	-0.29229194
77	0x3d10dcf4	0.035366967
78	0xbe95de9e	-0.29271406
79	0x3decddfd	0.115657784
80	0xbe3c19b2	-0.18369177
81	0x3f485ff7	0.7827143
82	0x3edf84d8	0.4365604
83	0xbef4760e	-0.4774632
84	0xbf93ae1f	-1.1537513
85	0x3cb71350	0.022348076
86	0x3ed23886	0.4105875
87	0xbe7a1249	-0.24421038
88	0xbdeac6a0	-0.11463666
89	0xbe003f79	-0.12524213
90	0x3ef21567	0.47281954
91	0xbfe14ef6	-1.7602222
92	0xbf8d311c	-1.1030612
93	0xc00c705f	-2.1943586
94	0xbee1780e	-0.44036907
95	0xbe4a9fca	-0.19787517
96	0xbfad123e	-1.3521192
97	0x3ebc00ed	0.36719456
98	0xbdd4b68a	-0.10386379
99	0xbf877fb8	-1.0585852
100	0xbe17d834	-0.14828569
101	0xbdf73ffd	-0.12072752
102	0xbfa4eda2	-1.288502
103	0x3eb6d4c8	0.35709214
104	0xbeb2f7e0	-0.3495474
105	0xbe77b3bc	-0.24189657
106	0xbdb337d5	-0.087508835
107	0xbdfb0fcc	-0.122588724
108	0xbdbd2cd9	-0.0923707
109	0xbe8f88c4	-0.2803403
110	0x3ce0ca3d	0.027440185
111	0xbe28e723	-0.16494422
112	0xbd91a35a	-0.07111235
113	0x3e0dc424	0.13844353
114	0xbe3367f7	-0.17520128
115	0xbc199363	-0.009373519
116	0xbe3294e6	-0.17439613
117	0xbf1a2bd0	-0.602231
118	0x3ded0bd6	0.11574523
119	0xc00afef6	-2.1718116
120	0x3d9b0fd5	0.07571379
121	0x3d2e7b4d	0.042598058
122	0x3e76ea07	0.24112712
123	0x3c0d13c9	0.008610674
124	0xbda067bc	-0.07832286
125	0xbe22b897	-0.15890728
126	0xbf8fcb65	-1.1233946
127	0x3fde6b7c	1.7376552
128	0x3f3a809e	0.72852504
129	0xbec578f6	-0.38568848
130	0x401eeb32	2.4831052
131	0xbf260341	-0.64848715
132	0xbf3591a8	-0.7092538
133	0xbf6178ea	-0.88075125
134	0x40034eb0	2.0516777
135	0xbda4b1a9	-0.080416985
136	0x3d298dd5	0.041395027
137	0xbd53aa7d	-0.051676262
138	0xbe255b1b	-0.16148035
139	0xbe024910	-0.12723184
140	0xbd598acc	-0.053110883
141	0xbe4a45fa	-0.19753256
142	0x3d03ecbd	0.032208193
143	0xbdceb983	-0.10093977
144	0x3e40040a	0.18751541
145	0xc015842b	-2.336192
146	0x40119e7f	2.2752988
147	0x3e3d3b6e	0.18479702
148	0x3fc93308	1.5718699
149	0x3f752d8a	0.9577261
150	0x3f7c6aca	0.9860045
151	0x3e28a58c	0.16469401
152	0x3e1ef818	0.15524328
153	0xbf4d414a	-0.8017775
154	0x3db877c8	0.090072215
155	0x3f049183	0.51784533
156	0xbfb24a1c	-1.3928866
157	0x3e74c817	0.23904453
158	0x3d28219b	0.041047674
159	0xbe95836a	-0.29201823
160	0xbe36ee19	-0.17864265
161	0x3c3ba7be	0.011453567
162	0x3c9d0a21	0.019169869
163	0xbe957fd4	-0.29199088
164	0xbe998380	-0.2998314
165	0xbd9f4545	-0.07776884
166	0xbda84dfd	-0.08218
167	0xbe1d10d5	-0.15338452
168	0xbe900c5d	-0.28134432
169	0x3db21e2e	0.086971626
170	0x3dbc1612	0.09183897
171	0xbfa0556a	-1.2526066
172	0x3ee1f80f	0.44134566
173	0xbe077adc	-0.13230461
174	0x3d4e9ce5	0.050442595
175	0x3ca6374e	0.020290043
176	0xbe6cacec	-0.2311284
177	0xbe11fd95	-0.1425689
178	0xbe4a168e	-0.19735166
179	0xbe727ac7	-0.23679648
180	0xbf62309c	-0.8835542
181	0x3e818523	0.25296888
182	0xbfc95a64	-1.573071
183	0xbe0e9f2b	-0.13927905
184	0x3d153571	0.03642792
185	0xbeb6ac1f	-0.35678193
186	0xbdf1fafa	-0.11815448
187	0xbd9e960a	-0.077434614
188	0xbd6b5f0a	-0.057463683
189	0xbd2d9002	-0.042373665
190	0xbe607d2f	-0.21922754
191	0xbe6b7063	-0.22992091

conv2.bias f4 [32]
0	0x3e9575cc	0.29191434
1	0xbf9f32e6	-1.2437408
2	0xbcf3cf21	-0.029761853
3	0xbe19acb5	-0.15007289
4	0x3dc213dd	0.09476445
5	0xbdf14ab4	-0.117818266
6	0xbe961441	-0.29312328
7	0x3f47e928	0.78090143
8	0xbea50d3e	-0.32236665
9	0xbe8b0304	-0.27150738
10	0xbe91c870	-0.28473234
11	0xbe0fdfe9	-0.14050259
12	0x3f10d751	0.56578547
13	0x3f37f4a7	0.71857685
14	0x3f0dc09c	0.55372024
15	0xbddd3492	-0.108010426
16	0x3f676fc9	0.90404946
17	0xbe502384	-0.20326048
18	0xbe9723a9	-0.29519394
19	0xbe9fcdac	-0.31211603
20	0xbe15a52b	-0.14613788
21	0xbe68fde2	-0.22753099
22	0x3ecd27ee	0.40069526
23	0xbe854fcf	-0.26037452
24	0xbe3000ef	-0.17187856
25	0x3f2a66c9	0.6656309
26	0x3f029b44	0.51018167
27	0xbe8b48d5	-0.27204004
28	0xbe12283e	-0.14273164
29	0xbe9b5641	-0.30339244
30	0x3d949bab	0.07256254
31	0xbe862030	-0.26196432

conv2.lin.weight f4 [32, 64]
0	0x3d9a6ed4	0.0754067
1	0xc09d3865	-4.913134
2	0x3e3690b3	0.17828636
3	0x3f353cfe	0.7079619
4	0xbe6d7e24	-0.2319265
5	0xbe2ac843	-0.16677956
6	0x3e8d8787	0.27642462
7	0xbfa980f5	-1.324248
8	0xbd912140	-0.0708642
9	0x3e1cd5f4	0.15315992
10	0xc10ca1ae	-8.789473
11	0x3c6f77c0	0.014615953
12	0x3d966d40	0.073450565
13	0xbe1017e3	-0.14071612
14	0x3e271750	0.16317487
15	0x3f146255	0.5796254
16	0xbdc614f0	-0.09671962
17	0x3d459656	0.048239075
18	0xbe551718	-0.20809591
19	0xbe569ed4	-0.20959026
20	0xc10d94a9	-8.848794
21	0x3e9957eb	0.2994989
22	0xbda899d4	-0.082324654
23	0xbc2ba070	-0.010475263
24	0xbd4a0a9b	-0.04932652
25	0xbe2eeaf1	-0.1708181
26	0xbdb3f77c	-0.08787438
27	0x3e0f98ea	0.14023176
28	0xc104460b	-8.2671
29	0xbe50a430	-0.20375133
30	0x3ea28b50	0.31746912
31	0xbc75a2e8	-0.014992453
32	0xc096ef9e	-4.71675
33	0xc118a1d7	-9.539512
34	0xc07eddd1	-3.9822886
35	0xbde6e31c	-0.112737864
36	0x3d5418f0	0.051781595
37	0x3d8b5961	0.06804157
38	0xbe3c9038	-0.1841439
39	0xbfc84e3b	-1.5648874
40	0x3dcc1bdc	0.09966251
41	0xbe80ab43	-0.25130662
42	0xc038a656	-2.8851523
43	0x3f9e435d	1.2364308
44	0xbfaf8316	-1.3711879
45	0x3d503066	0.050827406
46	0x3e75933e	0.2398195
47	0x3e348c4a	0.17631641
48	0xbe68a27b	-0.22718231
49	0xbef2a35b	-0.47390255
50	0x3e022709	0.12710203
51	0xc0d760bc	-6.7305584
52	0xc03c9ba8	-2.9470005
53	0x3e8b72f7	0.2723615
54	0xbe725dc9	-0.23668589
55	0xbe58dd0c	-0.21178073
56	0x3e2590ba	0.1616849
57	0xc06b2e90	-3.674717
58	0x3d35c22e	0.044374637
59	0x3de318d4	0.1108872
60	0xc09fb449	-4.9907575
61	0x3d97252d	0.073801376
62	0x3e7f53a0	0.24934244
63	0x3da89efc	0.08233449
64	0xbd89f080	-0.06735325
65	0x3fa40f1e	1.2817113
66	0xbef17898	-0.47162318
67	0xbf302979	-0.6881328
68	0xbcb2d519	-0.021830129
69	0xbe2f62fc	-0.17127603
70	0xbf30bf3d	-0.69041806
71	0x3e919116	0.28431004
72	0xbe2f74ca	-0.17134395
73	0xbfc0fc3f	-1.5076979
74	0x3e4c27f7	0.1993712
75	0x3e0a1e6c	0.13488168
76	0x3e3db996	0.18527827
77	0xbd9955b0	-0.07487047
78	0xbe47845a	-0.19484082
79	0xbe1139c6	-0.14182195
80	0xbc90aa90	-0.017659456
81	0x3d5d08a0	0.053963304
82	0x3e52c784	0.20583922
83	0xbe35944c	-0.17732352
84	0x3e03922d	0.1284873
85	0xbf2c4728	-0.67296076
86	0x3e53925e	0.20661303
87	0xbe06e363	-0.13172679
88	0x3c895130	0.016762346
89	0xbead8b41	-0.33895305
90	0x3e3d91a6	0.18512592
91	0xc044fb7b	-3.0778491
92	0x3e37796f	0.17917417
93	0x3e587ed6	0.21142134
94	0xbf6f14f2	-0.93391335
95	0x3f6d169d	0.9261263
96	0x3e9aaca0	0.30209827
97	0x3e28cf8f	0.16485427
98	0xbdc3f57b	-0.09568306
99	0x3c8f9b00	0.017529964
100	0xbd081678	-0.033224553
101	0x3de9c2c4	0.11414102
102	0x3e573004	0.2101441
103	0xc02dd547	-2.7161424
104	0xc007b08f	-2.1201513
105	0xbdf9183e	-0.12162827
106	0xbeed4946	-0.46344966
107	0x3fc32017	1.5244168
108	0x3fcf6ca1	1.6205026
109	0x3bc9c2f5	0.006157274
110	0x3d25e9c0	0.040506124
111	0x3e5332da	0.20624867
112	0xbef567f5	-0.47930875
113	0x3fbc0cf9	1.4691459
114	0xc0ea3655	-7.3191323
115	0xbe2db66e	-0.16964123
116	0x3eae8fab	0.34093985
117	0x3dd7266a	0.10505374
118	0xbe00994b	-0.12558477
119	0xbe58cce4	-0.2117191
120	0x3d35a0c3	0.044342767
121	0x3e707674	0.23482686
122	0xbf2435b0	-0.6414442
123	0xbd9bcae0	-0.07607055
124	0xbf0c0490	-0.5469446
125	0x3ddb54a9	0.10709507
126	0x3e3f1638	0.1866082
127	0x3d61c588	0.05512002
128	0xbe78cb4a	-0.24296299
129	0xbec634f4	-0.38712275
130	0xbe3a17f4	-0.181732
131	0xbe2a4133	-0.16626434
132	0xbddb6657	-0.10712879
133	0x3e43ca27	0.19120084
134	0xbe04273a	-0.12905589
135	0xbed07d05	-0.40720382
136	0xbc9ee164	-0.019394584
137	0x3dbcc1c4	0.09216645
138	0xbe91409d	-0.2836961
139	0xbc93af90	-0.01802805
140	0x3dd43b34	0.103628546
141	0x3e20384c	0.15646476
142	0x3dccbe74	0.099972636
143	0xbdf7af94	-0.12094036
144	0xbd82094c	-0.063494295
145	0xbd92df04	-0.07171443
146	0x3d8df4e4	0.06931475
147	0x3e30635c	0.17225403
148	0xbe9f1833	-0.3107315
149	0xbe5213aa	-0.20515314
150	0xbe7b8504	-0.2456246
151	0xbe8250ba	-0.25452214
152	0x3d5f9e96	0.0545946
153	0x3e24df7e	0.1610088
154	0xbcb4ef80	-0.022086859
155	0xbf042c91	-0.516305
156	0xbe765ab5	-0.2405804
157	0xbe644788	-0.22292912
158	0x3e1e3972	0.15451601
159	0xbe514478	-0.20436275
160	0xbeaa92de	-0.33315176
161	0xbc58f8ac	-0.013242882
162	0xbe404e11	-0.1877978
163	0x3d613510	0.054982245
164	0xbe05363e	-0.13008973
165	0x3dea6a3c	0.11446044
166	0x3e7d193c	0.24716657
167	0x3c9b341c	0.018945746
168	0xbe0de953	-0.13858537
169	0x3ddfad94	0.10921779
170	0xbda68e60	-0.081326246
171	0xbec10f9a	-0.37707216
172	0x3dfb4245	0.12268499
173	0x3e0c8812	0.13723782
174	0x3df9d364	0.12198523
175	0xbe5d81d0	-0.21631551
176	0x3e57bac5	0.2106734
177	0x3db17f3c	0.08666846
178	0xbeaab9df	-0.33344933
179	0xbe8ef78d	-0.2792324
180	0xbe8c873a	-0.2744692
181	0xbca1f030	-0.01976785
182	0xbd912ad8	-0.0708825
183	0xbd8a79c0	-0.06761503
184	0x3da87fa4	0.082274705
185	0x3bebb157	0.0071927714
186	0xbe806fb8	-0.25085235
187	0xbd0694f8	-0.03285691
188	0xbec13937	-0.37738964
189	0x3deddb2c	0.11614069
190	0x3e69fb60	0.22849798
191	0x3e0a8b7a	0.13529769
192	0x3c131109	0.0089762295
193	0x3dca50da	0.098787025
194	0xbe48e6aa	-0.19619241
195	0x3dbb333d	0.09140632
196	0x3e54effc	0.20794672
197	0x3e565e75	0.2093447
198	0xbe28b3be	-0.16474816
199	0xbe9ba12b	-0.303964
200	0x3e20b88e	0.15695402
201	0xbea4e7e1	-0.3220816
202	0xbd8a76b2	-0.067609206
203	0xbe0509a4	-0.12991959
204	0xbe6a3b2a	-0.22874132
205	0x3ddbcc5c	0.10732338
206	0xbdda237c	-0.10651299
207	0x3dc20ebf	0.09475469
208	0xbdfc455c	-0.12317917
209	0xbdd65b1c	-0.104665965
210	0xbde2b7b8	-0.11070198
211	0x3d92a5bc	0.071605176
212	0x3e27c1a2	0.16382459
213	0xbe9afed8	-0.30272555
214	0x3dc50cd0	0.096215844
215	0xbd31a808	-0.043373138
216	0xbe4ee758	-0.20205438
217	0xbd895284	-0.06705192
218	0xbe1bb0dc	-0.15204185
219	0xbecafab0	-0.39644384
220	0xbddef3c1	-0.10886336
221	0x3e1238c4	0.14279467
222	0xbe25015b	-0.16113798
223	0x3b86589a	0.0040999176
224	0xbd811c80	-0.06304264
225	0xbdce502b	-0.100738846
226	0xbce05769	-0.02738543
227	0xbd4db580	-0.05022192
228	0x3e0b3774	0.13595372
229	0x3e337b8e	0.17527601
230	0xbe64f79a	-0.22360078
231	0xbe6180ef	-0.2202184
232	0xbea82f50	-0.32848597
233	0xbd85eb3c	-0.06539008
234	0x3c6d99fd	0.014502046
235	0x3d68818f	0.05676418
236	0xbe95463d	-0.2915515
237	0xbd804ae0	-0.06264281
238	0x3d3b8e60	0.045790076
239	0x3e3ad212	0.18244198
240	0xbee56d98	-0.44810176
241	0xbe049dbd	-0.12950797
242	0xbc850a83	-0.016240364
243	0xbdd44308	-0.10364348
244	0x3c0a622c	0.008446258
245	0x3e69eef8	0.22845066
246	0xbe14778c	-0.14498729
247	0x3e03971e	0.12850615
248	0xbe1f2173	-0.15540104
249	0x3e2c846f	0.16847394
250	0xbe5566f1	-0.2084005
251	0x3e2aa230	0.16663432
252	0xbd24e82d	-0.040260483
253	0xbeb1a449	-0.34695652
254	0xbbf4c3c0	-0.0074696243
255	0x3e61174e	0.21981546

conv3.bias f4 [4]
0	0x3e735018	0.23761022
1	0x3d88352b	0.06650766
2	0x3d9c74a1	0.07639433
3	0xbf25ad74	-0.64717793

conv3.lin.weight f4 [4, 32]
0	0x3ee4c6fc	0.44683063
1	0x3ff77e77	1.9335469
2	0xbe524088	-0.20532429
3	0x3ed88173	0.42286262
4	0xbf43522d	-0.76297265
5	0xbed5afe4	-0.41735756
6	0xbe9b01e7	-0.3027489
7	0x3eef9d34	0.46799624
8	0xbef9380b	-0.4867557
9	0x3e762872	0.24038866
10	0xbe9d92d6	-0.3077609
11	0x3de7753f	0.1130166
12	0x3f1760f3	0.5913231
13	0x3f1645e9	0.58700424
14	0x3ea91560	0.3302412
15	0x3c8309d4	0.015995897
16	0x3e428b97	0.18998562
17	0xbe7c44dc	-0.24635643
18	0xbcbebf49	-0.023284571
19	0xbec072a4	-0.37587464
20	0xbea09dff	-0.3137054
21	0x3e699282	0.22809795
22	0xbf60ef73	-0.8786537
23	0xbeb12b7c	-0.34603488
24	0xbcecaeb2	-0.028891895
25	0xbfa2fba9	-1.273305
26	0xbea0aa4d	-0.3137993
27	0xbe86c5ef	-0.26322886
28	0x3d847ce7	0.06469136
29	0xbe6b0458	-0.22950876
30	0x3cd95e61	0.026534261
31	0x3c44bd8f	0.012008085
32	0xbea1bc88	-0.3158915
33	0xbfb3a866	-1.4035766
34	0x3eda78af	0.426702
35	0x3e8008b8	0.25006652
36	0x3c859c6b	0.016309937
37	0xbe295c5a	-0.16539136
38	0xbe2094aa	-0.15681711
39	0xbe4ba47d	-0.19886966
40	0xbeb363f9	-0.3503721
41	0xbe9799a3	-0.29609403
42	0x3df1af14	0.118009716
43	0xbf1bbd3a	-0.6083561
44	0xbdddaeb9	-0.10824341
45	0xbea31ece	-0.3185944
46	0x3dcbf993	0.09959712
47	0x3d71f5d3	0.059072327
48	0x3f020b1c	0.507982
49	0xbd9ce076	-0.0766
50	0xbc8b0c8e	-0.01697376
51	0x3f6360ae	0.88819396
52	0x3e8fc4bb	0.2807978
53	0x3e2c0934	0.16800386
54	0x3e911e7e	0.28343576
55	0x3e363cf1	0.17796685
56	0x3e343aba	0.17600527
57	0x3f2d4749	0.676869
58	0x3ec133bf	0.37734792
59	0x3e33b965	0.17551191
60	0x3e9cf13b	0.30652794
61	0x3dcc7021	0.099823244
62	0xbe0690e9	-0.13141216
63	0x3daed767	0.085371785
64	0xbf8c7fdf	-1.0976523
65	0xbd043f3b	-0.032286864
66	0x3e9c5a50	0.30537653
67	0xbe2cc726	-0.16872844
68	0x3eb04c23	0.34433088
69	0xbdbff447	-0.09372764
70	0xbf500c3d	-0.81268674
71	0xbf16f60c	-0.5896919
72	0xbd8ca9fd	-0.0686836
73	0xbdbd65e8	-0.09247953
74	0x3b27a4ae	0.0025580334
75	0xbf11bf83	-0.5693285
76	0xbfb7b4cc	-1.435205
77	0xbefc8a1e	-0.49324125
78	0xbf1ac786	-0.604607
79	0x3e57e39d	0.21082921
80	0xbf95614b	-1.1670316
81	0xbd604ac8	-0.054758817
82	0xbe1fb56c	-0.1559655
83	0xbffe7120	-1.9878273
84	0x3cea38fb	0.028591624
85	0x3d818a60	0.06325221
86	0x3ec61275	0.38685957
87	0xbe553f8c	-0.20825022
88	0xbd10b329	-0.03532711
89	0x3f3d138a	0.7385794
90	0xbc5f8590	-0.013642684
91	0x3c574ffd	0.013141629
92	0xbdae9896	-0.08525197
93	0xbdec8805	-0.11549381
94	0x3f0dd629	0.5540491
95	0x3db9e84d	0.09077511
96	0xbeb88ad7	-0.36043426
97	0x3ec310a0	0.3809862
98	0xbf02b278	-0.5105357
99	0x3ebdaab1	0.3704429
100	0x3ecebf4d	0.40380326
101	0xbe28c37c	-0.16480821
102	0x3ea9c288	0.33156228
103	0xbeef6ba0	-0.467618
104	0xbeb786d0	-0.3584504
105	0x3dc28e41	0.09499789
106	0xbe26d3f7	-0.16291796
107	0x3ee36202	0.44410712
108	0x3da54008	0.080688536
109	0x3f369edd	0.71336156
110	0x3e4a276a	0.19741598
111	0x3ddb69e3	0.10713556
112	0xbe748816	-0.23880038
113	0xbbccbbd8	-0.0062479787
114	0xbc959dd5	-0.018263737
115	0x3e39d640	0.18148136
116	0xbedb42d4	-0.42824423
117	0xbe9a1e0e	-0.30101055
118	0x3e8bb0a2	0.27283198
119	0x3dc3ca53	0.09560075
120	0x3de57195	0.11203305
121	0xbe2a1a4b	-0.16611592
122	0xbec9c78f	-0.39410064
123	0xbec2b65a	-0.38029748
124	0x3d682cac	0.056683227
125	0xbe5a3496	-0.21309122
126	0x3d151195	0.03639372
127	0xbcb738de	-0.022365984
