models/pathology_gat_final.pth (torch, 77893 bytes, 10 tensors)

conv1.att_src f4 [1, 4, 64]
000000 53 45 1c bd 7c bf 1e ba ff 0f 13 3e be 72 87 bb
       -0.03815205 -0.0006055755 0.14361571 -0.0041335514
000010 cd 4e 2c 3e fc 29 e2 39 0a ef e4 3a a2 03 df 3c
       0.16826935 0.0004313736 0.0017466259 0.027223412
000020 05 dc 71 b8 e4 09 5d be a2 32 e6 bb c3 b3 d7 3b
       -5.7663787e-05 -0.21585804 -0.007025079 0.0065827086
000030 1e cf f8 37 f6 da f3 b8 0b f7 f6 b9 3e 69 28 3b
       2.966035e-05 -0.000116279276 -0.00047104838 0.0025697495
000040 d0 d0 35 be 89 73 d8 38 bb 64 11 3a 4f 6a 1e 3b
       -0.17755437 0.00010321203 0.0005546321 0.0024172252
000050 a9 b6 03 be c8 26 39 bd ba ba 54 3b 06 27 3c be
       -0.12862648 -0.045203 0.003245993 -0.18374261
000060 9f 4f 26 be 8f 25 05 bd 02 8a c4 3c c5 fb a1 ba
       -0.1624131 -0.03250652 0.023991589 -0.0012358358
000070 72 77 6a 39 64 4a f3 3d f8 45 25 3d 9d 1f 6b be
       0.00022360476 0.11879423 0.04034993 -0.22961278
000080 b3 c6 fb bd ae 18 04 be 32 f8 16 3d 35 74 30 3a
       -0.12293758 -0.1290004 0.03685779 0.00067311834
000090 64 5d 1b b9 75 ba 15 ba 29 2b 1d 3e 4c ce f6 3c
       -0.00014816743 -0.0005711683 0.15348496 0.030127667
0000a0 28 fa 4f 3a d4 3d 25 be f1 0e e7 39 54 ab b4 ba
       0.00079336995 -0.16136867 0.00044070886 -0.001378397
0000b0 51 3d 67 3d bb 6f 0b 3b 30 be b5 bb ad 45 ec bd
       0.05645496 0.0021276313 -0.0055463538 -0.11536727
0000c0 0d 3c 39 3c 42 c8 1c b7 74 27 91 bd 36 cf 0b 3a
       0.011305821 -9.344951e-06 -0.07087603 0.0005333306
0000d0 35 0b 4c 3e cb 01 92 ba 75 51 7a 3a 73 2d 8b 37
       0.1992615 -0.001113945 0.0009548881 1.6591255e-05
0000e0 60 83 ed bd 62 a9 fc 3a af b6 03 be 05 fe 70 3e
       -0.115973234 0.0019276554 -0.12862657 0.23534401
0000f0 05 39 cc 37 82 b2 fe ba b6 1b bc b8 a1 5d 80 3e
       2.4345247e-05 -0.0019431862 -8.9697e-05 0.25071433
000100 bd aa 31 3e f3 73 ae 3c 69 78 66 3b 1f a2 a5 3e
       0.17350288 0.021295523 0.0035166985 0.3235025
000110 7d 83 d5 bb 38 b2 ff b9 91 ba e4 3d 8d 5e 7f ba
       -0.0065159188 -0.00048770173 0.11168397 -0.0009741567
000120 11 03 f3 ba 9e 9e 0b bd a3 84 74 3e 0c 0b 77 3a
       -0.0018540343 -0.034086816 0.23878722 0.00094239484
000130 b1 9f 9b bd 58 54 27 3e 45 05 88 be 07 9f 98 3e
       -0.07598818 0.16340768 -0.2656652 0.29808828
000140 e5 9d b6 ba 7e 8a 81 3e 0d 93 07 be 50 b4 61 bc
       -0.0013932554 0.25300974 -0.13239689 -0.0137759
000150 bc 81 a5 3e a0 1d 1c 3e 80 72 e6 ba dc f1 a0 3d
       0.32325542 0.15245676 -0.0017581731 0.07858631
000160 eb 82 86 3e 4e 2b 25 3e 02 a0 be be 9c 1d 56 3e
       0.26271757 0.161298 -0.3723145 0.20909733
000170 36 0c fd 39 8c 62 14 3e b4 2f 50 be 7c 48 cd bd
       0.00048265018 0.14490718 -0.20330697 -0.10023591
000180 cd 19 6d b9 f9 99 33 be fc 51 48 be 88 b8 5d 3d
       -0.00022611693 -0.17539205 -0.19562525 0.05413106
000190 c2 cd 0f bd f4 80 ba 3d 8d 90 ad ba 2e 20 d2 3c
       -0.035108335 0.09106627 -0.0013241932 0.02565011
0001a0 61 7e a5 3a a4 ee 90 3e 16 1a c8 be 65 69 8a 3d
       0.0012626165 0.28307068 -0.39082402 0.06758384
0001b0 4a 90 f4 bd cf bc 16 3b 69 03 74 3e fa c6 b1 be
       -0.119415835 0.0023000722 0.23829426 -0.3472212
0001c0 82 ae 0f bd 4f 9d 92 3e 3c 1a 60 ba 9b 7a 08 bb
       -0.035078533 0.28635642 -0.0008548831 -0.0020825032
0001d0 61 f1 da 3a 30 b7 9c be 45 f0 a7 be b4 ad 96 3b
       0.0016704017 -0.3060851 -0.328005 0.0045983437
0001e0 27 99 26 3e c0 60 9d be 07 45 9a be 1c f4 c8 3a
       0.1626936 -0.30737877 -0.3013079 0.0015331539
0001f0 a8 d3 a3 3d e6 22 01 3e a8 cf 07 be 3f af a2 bc
       0.079993546 0.12610969 -0.13262808 -0.019858954
000200 2f 1f d6 bd 85 98 e3 3e 53 72 50 be 9a 7e fe 3d
       -0.104551665 0.444523 -0.20356111 0.12426491
000210 32 f4 4c 3e 3d 0b 74 3e 99 ba 1e 3d 63 af 3d bf
       0.20015028 0.23832412 0.038752172 -0.74095744
000220 e7 25 99 3e 34 69 fc be a2 2c 03 be 6b b6 ec bd
       0.2991173 -0.49299014 -0.12809995 -0.11558231
000230 83 28 ce be 14 bc 67 3d 7a ed 94 3e 69 bc 55 bb
       -0.40265283 0.05657585 0.2908743 -0.0032613522
000240 f3 35 d3 3e b7 30 8d 3a 61 2b 0c 3c 17 77 b6 3e
       0.41252097 0.0010771964 0.008555264 0.35637733
000250 bf 4b 96 3e 45 5b 66 3e 8c 0f b6 be 07 a7 a5 3d
       0.29354665 0.22495754 -0.35558736 0.080884986
000260 ca eb ac 39 e6 0d c3 3c 8f 5f 98 3d 17 c2 9f be
       0.00032982073 0.023810338 0.07440101 -0.31202766
000270 8f 06 80 be 6b 4a 4e be 25 4e 05 3e c0 de 9e be
       -0.25005004 -0.20145576 0.13018091 -0.3102932
000280 a4 83 2c 3a 4e 7e 6c be 72 60 28 bb 60 6e 4a bd
       0.0006580895 -0.23095056 -0.0025692252 -0.049421668
000290 0e bb 82 3e 9a ac ce be 1c 81 c1 3d 4f 6e b9 3b
       0.25533336 -0.4036606 0.09448454 0.0056589018
0002a0 2e df 8f bd 26 df 9d 3a 0b 6b 4b 3e 08 73 7f bb
       -0.0702499 0.0012044653 0.19865052 -0.0038978476
0002b0 25 af e6 3d 92 de a8 3e c2 0f 2a be c3 4a 27 3e
       0.11263875 0.32982308 -0.16607574 0.16337113
0002c0 f5 ce 67 bb 7a 28 b0 3b 0b ff dc 3a 94 19 f7 be
       -0.0035371159 0.005375919 0.0016860677 -0.48261702
0002d0 24 32 9d bc d9 7d 38 3e 1b 4c f5 be d5 9f e8 be
       -0.019188948 0.18016757 -0.47909626 -0.45434442
0002e0 09 da e1 bd 55 c4 f5 bc 13 95 b0 ba fa 3a b4 3c
       -0.11027915 -0.030000845 -0.0013472162 0.022000778
0002f0 b1 90 41 3a c3 97 ba 3e 24 12 01 3e 97 c3 d9 be
       0.00073839264 0.3644391 0.12604576 -0.42532036
000300 54 20 83 ba 12 4a ad be 1c 2a a4 be 58 f1 a9 ba
       -0.0010004141 -0.33845574 -0.32063377 -0.0012965603
000310 aa e3 23 3e 4c d5 2a 3e 47 8a 80 be cc 2b 05 bf
       0.16004816 0.16682929 -0.25105497 -0.52019954
000320 79 08 7c be 6c 2c eb 38 7e 32 b5 3a 20 9e b0 be
       -0.24612607 0.000112139474 0.0013824252 -0.3449564
000330 fd 28 b8 3b d3 d0 87 3e 45 54 e6 be f8 03 b8 ba
       0.0056201206 0.26526508 -0.44986168 -0.0014039269
000340 af d6 a3 bb d2 4c 80 3e b0 d8 e0 ba 86 f9 37 39
       -0.0049999575 0.2505861 -0.0017154422 0.00017545195
000350 d3 c6 99 be 0e 5f bc ba 47 9d 58 3b 63 71 b8 bd
       -0.30034503 -0.001437159 0.003305273 -0.09006002
000360 49 7c 82 3e 46 e2 de 3e f2 8a a2 be 2d 34 d1 be
       0.25485447 0.43532008 -0.31746632 -0.4086012
000370 49 6f 80 3d 10 fe 54 bb 83 ba 93 ba ef a2 97 ba
       0.06271226 -0.0032500066 -0.0011270795 -0.0011568944
000380 05 22 ae 3c 32 11 1e 3e 91 8d 05 ba 08 11 33 b9
       0.021256456 0.15436247 -0.00050946424 -0.00017077115
000390 24 95 05 ba 73 bc b9 3a dd aa 91 3e f8 19 f1 bd
       -0.0005095771 0.0014170542 0.2845067 -0.11772531
0003a0 1e 1f 0e be ff 6e c5 be 56 ae d3 be 22 13 b6 be
       -0.13879058 -0.38561246 -0.41343945 -0.35561472
0003b0 22 31 07 3d 77 b7 c7 be 1f e7 02 bf 0a 01 86 3a
       0.03300584 -0.3900716 -0.5113391 0.0010223698
0003c0 7b 59 b4 39 78 a0 02 bb 0d c8 13 3c 61 36 7a be
       0.00034398944 -0.0019932073 0.009019864 -0.24434806
0003d0 c8 d5 02 bc 48 8d 56 3e c4 62 0e be de 90 83 be
       -0.00798554 0.20952332 -0.13904864 -0.25696462
0003e0 12 cd f7 be 2f e0 a6 be 45 63 7a 3b 09 8a 64 bb
       -0.48398644 -0.32592914 0.0038206142 -0.0034872314
0003f0 7a 7a d9 3a f5 1d 89 3e 3b 02 78 3e 6a 64 b3 b9
       0.0016592287 0.26780668 0.24219601 -0.00034216355

conv1.att_dst f4 [1, 4, 64]
000000 a2 b5 05 be 00 6a f9 bb b5 87 f4 bd b2 41 81 3c
       -0.13057569 -0.007611513 -0.119399466 0.015778396
000010 0b d4 c6 3d 69 4b 20 3b 55 41 59 3e 9c 21 c6 3c
       0.09708413 0.002445901 0.21216328 0.024185948
000020 e2 85 01 bb e6 40 13 bd 23 7f 17 be be 67 a3 be
       -0.0019763638 -0.035950564 -0.14794593 -0.31915087
000030 33 dd 44 bb 21 b4 8c bb 5b b6 55 bb 78 26 d3 bb
       -0.0030039072 -0.004293934 -0.0032609913 -0.006443795
000040 9a a5 c1 bd 68 bb 57 bb d1 4a 31 bc 4d 07 40 bb
       -0.09455414 -0.00329181 -0.01082106 -0.0029301227
000050 b3 48 01 bf 53 d7 49 bd 3b bb a9 bd b4 e2 06 be
       -0.50501555 -0.049277615 -0.082876645 -0.13172418
000060 ee ab 6b be 5c 1d a9 ba b4 f7 cf 3c 90 b7 04 bc
       -0.23014805 -0.0012902427 0.025386669 -0.008100405
000070 29 01 55 bc 7c 2f 69 be 5e 7a d6 3b ab 36 46 be
       -0.013000765 -0.2277202 0.006545349 -0.19356792
000080 96 f8 96 3d c0 55 43 3d 7f df 16 be f6 87 0f bb
       0.07371633 0.0476892 -0.14733694 -0.0021901107
000090 3d a8 26 b9 65 5f f5 3b 2c d9 32 bd 88 05 d4 3d
       -0.00015893667 0.0074881786 -0.043664142 0.103526175
0000a0 4a 15 ab bb 97 80 28 be e9 e1 81 bb a7 0f 17 bc
       -0.0052210437 -0.16455303 -0.003963698 -0.00922004
0000b0 bf 89 a5 bd b3 a1 5f 3b 88 bd e2 3c 6d 87 5b bd
       -0.080829136 0.003412348 0.027678266 -0.05359595
0000c0 95 8a 49 bb 50 97 37 b8 dd 2b 61 be 23 52 fe ba
       -0.0030752767 -4.377152e-05 -0.21989389 -0.0019403141
0000d0 41 8f 26 bd af 1e b9 3b a7 c0 4e 3b 91 1b 83 3b
       -0.04066396 0.0056494097 0.0031547935 0.004001089
0000e0 08 95 a6 be 8b 5c 13 bc 8f e9 9e bd a7 f5 20 be
       -0.32535577 -0.008994232 -0.077593915 -0.15718709
0000f0 91 b9 b1 ba ba 25 ad bb 11 31 c3 ba 8e 94 b4 bd
       -0.0013559331 -0.0052840384 -0.0014891942 -0.08817397
000100 8f c8 98 bd 7d 70 32 bc f8 27 0f 3a 82 17 36 be
       -0.074601285 -0.010891077 0.0005460973 -0.17782405
000110 ad 00 05 bc 4a 17 d7 3a e3 c1 dc bc 7f 97 d2 ba
       -0.008117837 0.0016410139 -0.026947921 -0.0016066878
000120 25 11 00 bb a4 24 5e 3e de 21 d2 be 17 08 33 3a
       -0.001954147 0.21693665 -0.41041464 0.00068295136
000130 42 c6 c3 be 8a aa 90 3a f7 3d 1d 3f f7 0e 89 3c
       -0.38237196 0.0011037153 0.61422676 0.016730769
000140 00 87 b1 3a 8e 9d 95 bd 65 8a 17 3f 9f 15 3b bc
       0.0013544261 -0.07305442 0.5919555 -0.011418729
000150 7c 26 63 bd 74 68 d8 bd e0 55 2b 3a a4 c3 a3 be
       -0.055456623 -0.10566798 0.00065359287 -0.319852
000160 17 a2 fe bd 9f d7 9c be 3e 05 ef 3e 5f 5f 97 bd
       -0.1243326 -0.30633256 0.46683687 -0.073912375
000170 7d e3 ec b9 1f 49 87 be bd 51 20 3f 80 28 1c be
       -0.0004518292 -0.26422974 0.6262472 -0.15249825
000180 36 77 10 3a a5 f8 dc bd 38 ab 11 3f 27 68 05 bf
       0.0005510928 -0.10789613 0.56901884 -0.5211205
000190 e3 d5 ab be 46 a5 ce be b0 ef 57 3b 9f ea b6 be
       -0.3356162 -0.4036047 0.0032949261 -0.35725877
0001a0 f6 aa e5 3a a7 7f 01 bc eb dd 5d 3f fa 4e bf 3d
       0.0017522264 -0.00790397 0.86666745 0.093412355
0001b0 33 f9 19 3f 25 6b cd 3a bd 9e f9 bd 7a e9 cb 3d
       0.6014587 0.001567219 -0.1218848 0.099566415
0001c0 81 4d b9 be 4e 0f 49 bd 4a 24 0a bb f0 52 92 39
       -0.36191943 -0.04908686 -0.002107876 0.00027909083
0001d0 8d 0f 95 3a d3 5c 8d be 0c 69 10 3c 66 3c 4f bb
       0.0011372432 -0.27609882 0.008814108 -0.0031621694
0001e0 41 22 41 3d 68 05 4c 3f f5 f2 fc 3e 4c a1 3d ba
       0.047151808 0.7969575 0.49404112 -0.0007233813
0001f0 38 1d 57 be 7b d9 f1 be bc 9b a9 be 8c b4 8c bc
       -0.2100724 -0.47236237 -0.33126628 -0.017175935
000200 4e d2 a2 3e 59 90 c8 be c5 53 ac 3e 04 a5 df bd
       0.31801075 -0.3917263 0.3365766 -0.10920146
000210 ad a4 19 be 45 04 75 be 37 c7 c0 bd 09 90 46 3e
       -0.15004225 -0.2392741 -0.09412997 0.19390883
000220 50 5f 8f be 89 87 66 3e af 2b 5a 3e cd 22 1a 3e
       -0.28002405 0.2251264 0.21305726 0.15052338
000230 70 05 33 3e 6b 45 99 bd 7c 42 a6 be b4 44 dc 3e
       0.17482543 -0.074839436 -0.324726 0.43021166
000240 b8 c4 cc be 26 b5 6f 3b 24 d3 ec b9 ac 4d a3 be
       -0.39993834 0.0036576479 -0.0004517074 -0.31895196
000250 74 b1 72 be 4b 2d 9f be 75 d5 a8 3e bc ad 96 be
       -0.23700505 -0.31089243 0.32975355 -0.29429424
000260 fb 92 e6 b7 e1 66 18 3d f2 0c 37 3e e7 ac 41 3e
       -2.748658e-05 0.037207488 0.17876032 0.18913613
000270 e9 32 c9 3e 70 f5 7d 3e 5a f8 c8 3d d0 7a b3 3d
       0.39296654 0.24800658 0.09812994 0.08763659
000280 68 32 d7 3a b1 8e 0d 3e 0e ef cb ba d6 14 8b 3e
       0.001641822 0.13823964 -0.0015558915 0.27164334
000290 5a ca 6e be 27 fd ad 3e e8 03 08 be d3 ba f1 3d
       -0.23319378 0.33982202 -0.1328274 0.11803212
0002a0 4f 3d 3b 3e c9 55 a9 3a 95 66 88 be 91 11 29 3b
       0.18285106 0.0012919243 -0.26640764 0.0025797824
0002b0 9a e7 46 3e a7 be 94 be d7 08 74 3e 6b f3 24 be
       0.19424286 -0.29051706 0.23831497 -0.16108482
0002c0 45 f3 1c 3c ce 09 96 3b 40 b4 bc b9 db ce 2a 3e
       0.009579484 0.0045788055 -0.0003599245 0.16680472
0002d0 b4 fb a5 bc fd eb 11 be 7f 6a 87 3e 35 ce 80 3e
       -0.020261623 -0.14250179 0.26448438 0.25157323
0002e0 36 7d da 3e 1a 4f cf bd b7 20 00 3a 17 52 f5 bd
       0.42673653 -0.10122509 0.00048876874 -0.11978548
0002f0 53 85 8d 3a 69 02 70 be 09 ec f9 bd fd 50 81 3e
       0.001079718 -0.2343842 -0.12203223 0.25257102
000300 aa 81 97 ba 46 c5 95 3e b2 4a 8b 3e fc 17 59 bb
       -0.0011559029 0.2925207 0.27205426 -0.0033125868
000310 76 49 51 be f5 ee 5c be bc 1b 60 3e 4c cd ae 3e
       -0.2043818 -0.2157553 0.2188558 0.34141004
000320 8c 19 20 3e fc cc d1 b9 e0 1f a1 3c 6f 95 a7 3e
       0.15634745 -0.00040016312 0.01966852 0.32731196
000330 5e 13 6d 3b 5e d4 73 be 67 64 a6 3e 62 cb ae 3a
       0.0036174874 -0.2381148 0.32498476 0.0013335759
000340 88 9b ab bc f0 95 75 be 14 ac 8b bc 3e 25 0c bb
       -0.020948187 -0.23982978 -0.017049827 -0.0021384503
000350 39 73 87 3e 61 6d 62 bb 87 f7 41 3a 28 43 31 3e
       0.26455095 -0.0034550058 0.000739925 0.17310774
000360 8b 07 90 be 2a 18 a7 be 9b e6 92 3e ba eb aa 3e
       -0.28130755 -0.32635623 0.28691563 0.3338297
000370 53 b6 1a 3d 04 b0 7a bc 03 db 55 3d 1a 70 1c bb
       0.037771534 -0.015300754 0.05221082 -0.0023870529
000380 14 f1 51 bd 38 50 ee bc 39 19 24 bb e9 3c c2 3a
       -0.0512553 -0.029090986 -0.0025039448 0.0014819178
000390 ca f5 b9 3b 13 10 68 bc ae a3 d3 bd 30 12 ac 3d
       0.0056750523 -0.014163989 -0.10333954 0.084019065
0003a0 8c 08 4a 3e d9 16 b1 3e 0b e0 95 3e 86 a7 9e 3e
       0.19729823 0.34587744 0.29272494 0.30987185
0003b0 8f 63 f5 bb fa 2d a0 3e 7f 76 ac 3e 04 7d 14 3b
       -0.007488675 0.31285077 0.33684155 0.0022657523
0003c0 8c de 43 3b df 77 98 3b a4 68 c0 bc 51 ea 85 3e
       0.0029887287 0.0046529616 -0.023487397 0.26155332
0003d0 24 32 d4 3d c8 7b 53 be 8e b3 ff 3d b7 26 6e 3e
       0.10361126 -0.20652688 0.12485419 0.23256956
0003e0 1a fe a9 3e e3 4e 8e 3e d9 ef 06 bb 99 f8 b2 bb
       0.33201677 0.2779456 -0.0020589738 -0.005461764
0003f0 34 4a 29 3b 8c 76 81 be a2 55 75 be ec ae 06 3a
       0.0025831582 -0.25285757 -0.23958448 0.000513776

conv1.bias f4 [256]
000000 b8 a0 80 bd 5e f1 3e b9 ff 6b 2d bd fb 5f 63 b9
       -0.06280655 -0.00018209728 -0.04233932 -0.00021684162
000010 64 74 57 bd 24 4a c8 36 d6 69 0a bd 84 f2 3f 3c
       -0.052601233 5.9690956e-06 -0.03379234 0.011715535
000020 6f cd 59 b7 5f b4 ec bc 1c 6d 30 bd ac 3a a9 bc
       -1.2982039e-05 -0.028894601 -0.043072805 -0.02065786
000030 51 16 54 3a e3 6c 34 b9 19 73 b6 3a 3c 4f 97 38
       0.00080904836 -0.00017206701 0.00139198 7.215e-05
000040 a5 f5 44 bd b0 63 83 b9 63 ca c9 b8 d7 5b 87 3b
       -0.048085827 -0.0002506054 -9.622124e-05 0.004130821
000050 7c 7c 42 bd 52 2b 0c bc 9d 06 71 bd 99 cc e1 3c
       -0.047482 -0.00855525 -0.058844198 0.02756338
000060 75 e6 79 bd af 42 c1 bd fa 31 15 3b 32 26 cc bb
       -0.061010797 -0.09436547 0.0022765384 -0.006230139
000070 4f 9f b7 b9 d6 b4 12 bd 3e 3e 1b 3b 54 b3 74 bd
       -0.00035023174 -0.03581699 0.0023688222 -0.059741333
000080 5b f3 81 3c a2 52 5c 3c c4 df df bb e5 10 5a b9
       0.015863111 0.013447436 -0.006832095 -0.00020796394
000090 a4 44 10 b9 bd 2c 43 39 9d be 6b bd 65 f4 22 bd
       -0.00013758481 0.00018613315 -0.05755483 -0.039783854
0000a0 6d c2 8d b8 bc 1b e2 bc d2 2b 6f 38 ec 19 3c ba
       -6.7596186e-05 -0.027601115 5.702285e-05 -0.00071754935
0000b0 16 39 c2 bc c4 c4 cc 39 8b 51 d2 3a 3e a4 3d 3c
       -0.023708861 0.00039056514 0.001604603 0.011574803
0000c0 ca 20 28 bb b7 0b c6 b9 1a a6 8b bd c4 78 61 b9
       -0.002565431 -0.0003777423 -0.06818791 -0.00021502661
0000d0 7e 6e da bc 5d fe 76 3a 7b 15 36 3a e4 3b 12 39
       -0.026664015 0.00094220584 0.000694595 0.00013945956
0000e0 d7 c4 3c bd 5b 12 e4 39 6a b9 27 bd 62 ab dc bc
       -0.04608616 0.00043501225 -0.04094831 -0.02693719
0000f0 db 43 0b 3a 52 ca f5 ba 2e 82 26 38 c4 f4 43 bd
       0.00053125405 -0.0018752313 3.9698723e-05 -0.04784085
000100 a6 aa fe bd 9e e1 a4 bb 51 ab 49 b9 06 d9 2a be
       -0.12434892 -0.0050317785 -0.00019232674 -0.1668435
000110 cf dd 17 ba b2 4b 90 39 a2 57 51 bd 3a 53 de b8
       -0.0005793245 0.00027522218 -0.051108964 -0.00010601287
000120 38 d2 1a 3a e1 00 72 3d c0 93 55 be de 1e ec 38
       0.0005905959 0.05908287 -0.20857143 0.000112591064
000130 ab bc 9b bd ab 00 75 bd f2 53 6a 3c fc 2a d5 bd
       -0.07604345 -0.05981509 0.014302241 -0.10408589
000140 c6 75 8d 3a 37 a1 c6 bd 39 02 2f bb 25 b4 8c 3a
       0.0010792546 -0.09698718 -0.0026704206 0.001073484
000150 d2 49 25 be 2b f1 a1 bd 97 78 64 39 40 c6 fa bd
       -0.16141441 -0.07907327 0.00021788698 -0.122448444
000160 72 d9 09 be 8f cf 04 be fa 8b 31 3d 00 3f 01 be
       -0.13461855 -0.12969802 0.043346383 -0.12621689
000170 59 24 1f 3a d6 b6 d7 bd 2f 06 04 bc 80 73 70 bb
       0.0006070785 -0.1053292 -0.008058115 -0.0036689937
000180 ab d8 fb b7 1a e8 9b 3a 3c f0 2b bc 60 3f e4 bd
       -3.0022426e-05 0.0011894733 -0.010494288 -0.111449
000190 83 a0 9a bd 05 bb a6 bd cd 7a 34 39 07 76 cf bd
       -0.075501464 -0.0814114 0.00017211885 -0.10129934
0001a0 e1 80 fb 38 23 fa e3 bd 13 4a e1 3a ee 27 4e bb
       0.00011992618 -0.11131694 0.0017188214 -0.0031456905
0001b0 f5 b1 1a bd d1 83 5c 3a 50 2d 09 be 84 8c 39 3d
       -0.03776737 0.0008411976 -0.13396192 0.04530002
0001c0 1d 88 af bd 4e 86 fc bd bb 7c 48 3a 69 a7 27 b8
       -0.085708834 -0.12330304 0.0007647981 -3.9971816e-05
0001d0 22 94 51 b7 19 ab 56 bc 6e 0b 91 3d ab 5f c8 3a
       -1.2491861e-05 -0.013102316 0.07082258 0.00152873
0001e0 70 e1 84 bd 6c 3e a2 bc 2d 2d 39 3a ac 5e 82 ba
       -0.06488311 -0.019805156 0.00070639217 -0.0009946427
0001f0 20 5a f2 bd 9c e4 f6 bd 46 81 de bd 1d 53 9b ba
       -0.11833596 -0.120553225 -0.10864501 -0.0011850331
000200 63 ce 38 3d 15 58 1c be 75 ec 85 3c 53 e7 5a bd
       0.0451187 -0.15267976 0.016348103 -0.053443264
000210 44 bc 82 bd 2e 1f 9e bd d8 5b b8 bc 10 c6 06 3d
       -0.06383565 -0.07720791 -0.022504732 0.03290373
000220 ac 24 a9 bd 34 d3 83 3d 6b 0d e6 3c b6 39 a2 3c
       -0.08258948 0.06436768 0.02808257 0.01980291
000230 c5 f9 6d 3d 1a 29 ac bc f3 87 c8 bd 8d ce 78 bc
       0.058099527 -0.021015693 -0.09791555 -0.015185964
000240 56 99 00 be db 54 1e 3a 3d b2 d8 39 2b 17 c8 bd
       -0.12558493 0.0006039866 0.00041331528 -0.09770044
000250 d2 46 b0 bd 6c 98 9a bd 5d 33 53 3d d6 c6 97 bd
       -0.08607258 -0.075486034 0.051562656 -0.07410972
000260 5d 4a 6c 39 24 88 62 bd 18 f2 02 bc c7 b0 37 3d
       0.00022534416 -0.055305615 -0.00799229 0.044846322
000270 8f e9 73 3d 45 27 5a 3d 1b 98 c1 bd 4f 6f 73 3d
       0.05954891 0.053260107 -0.0945284 0.059432324
000280 d4 bf d1 ba ea 78 3e 3d 20 cb fa b9 f1 37 1f 3d
       -0.0016002604 0.04650203 -0.00047835056 0.03887171
000290 f0 44 a2 bd ac 59 64 3d f0 53 0a bd 30 4f 09 bd
       -0.07923305 0.05574958 -0.033771455 -0.033522785
0002a0 f7 b2 6d bd ca 11 10 3b 02 ca 91 bd d2 a4 4a ba
       -0.058032002 0.002198326 -0.07118608 -0.00077302486
0002b0 fa 8e 8a bd 46 40 dd bd 3b 22 cd bc 2f bd 83 bd
       -0.06765552 -0.10803275 -0.025040736 -0.06432568
0002c0 f8 bb d4 3b f2 ac 19 3a dc ec 20 3a 31 ab 36 3d
       0.006492134 0.00058622577 0.00061388104 0.044596855
0002d0 6a 46 e7 bd 56 99 5c bd 13 4e 45 3d 0c 67 52 3d
       -0.11292727 -0.05385717 0.04817016 0.051367804
0002e0 c8 e9 f7 bc 7d c7 fe bc d6 8e e2 b7 ca fd 29 bd
       -0.030262843 -0.031100983 -2.7007813e-05 -0.041501798
0002f0 3d 17 47 39 7d 1d c6 bd d4 1c 0c bd 7d a2 35 3d
       0.00018986776 -0.09673593 -0.03420718 0.044344414
000300 d7 23 7b 3a 2f f1 5e 3d b0 c1 9a 3d f1 4b 62 b9
       0.00095802307 0.05442923 0.07556474 -0.0002158133
000310 1b 7c 74 bd 68 69 81 bd 74 9c 49 3d c9 0d a5 3d
       -0.05968867 -0.06318933 0.04922147 0.0805927
000320 0f 8e 36 3d f4 b0 4e b9 09 7c e3 3a f6 9c 60 3d
       0.04456907 -0.00019711611 0.0017355691 0.05483719
000330 3d 2b 74 3b dd 50 d1 bd 2f 95 3e 3d 93 6e 8a 38
       0.0037257217 -0.102205016 0.04652899 6.600949e-05
000340 8d b2 c9 ba 8f fc bb bd 1b 77 91 bb a6 84 7b ba
       -0.0015388295 -0.09179031 -0.0044392473 -0.00095946563
000350 82 06 5b 3d 82 a4 1e ba 15 4a 68 ba 2c ec 3d 3d
       0.053473003 -0.0006051735 -0.0008861137 0.04636781
000360 c2 fa a5 bd a9 dd fb bd 49 3c 31 3d 8f 89 53 3d
       -0.08104469 -0.12298138 0.043270383 0.051644858
000370 e9 39 4e bd 18 87 02 bb 2e 49 1a 3d 98 08 ae 39
       -0.050348196 -0.0019916948 0.037667446 0.0003319427
000380 79 ff 3f bc 88 51 a4 bd c6 78 4f ba e7 93 23 3a
       -0.011718624 -0.08023363 -0.000791442 0.0006239996
000390 dc ac 9b 3a a2 a8 05 ba d5 a0 26 be e3 3e a6 bc
       0.0011877078 -0.00050986756 -0.1627229 -0.020293659
0003a0 3b 27 25 3d dc 7b 34 3d 65 9b a1 3d 6b e8 49 3d
       0.040320616 0.044063434 0.07890967 0.049293917
0003b0 34 6d fd bd 7f 71 6b 3d 30 ea 95 3d b9 9f f5 b8
       -0.123743445 0.057481285 0.07320058 -0.00011712261
0003c0 42 d4 fe 38 88 4a 90 ba 4a 46 80 ba bf 79 41 3d
       0.000121512 -0.001100854 -0.0009786573 0.047235247
0003d0 e4 60 dd 3c 15 a4 9d bd 69 0a 3e 3d ca 79 5b 3d
       0.02702374 -0.07697312 0.046396647 0.053582944
0003e0 59 e4 77 3d df 4f 72 3d c5 cf 3a 3a 4e 7f 09 39
       0.060520504 0.059158202 0.0007126297 0.00013112763
0003f0 ce 9a 84 39 b0 e3 cb bd ed 24 be bd c9 c0 a2 38
       0.0002529234 -0.09955537 -0.09284387 7.760671e-05

conv1.lin.weight f4 [256, 3]
000000 c1 1e 6f be 15 a8 80 3d 8a 55 3b 3d 81 62 7d 3a
       -0.23351575 0.06282059 0.045735873 0.00096658623
000010 f7 9d 1d bb 98 17 ba 3a f0 b1 ac be b8 5a 1d bc
       -0.0024050453 0.0014197705 -0.33729506 -0.009604149
000020 cd 36 1b 3d b8 e8 13 b9 5f c6 e4 bb d5 ae 21 3b
       0.03789406 -0.00014105707 -0.0069816555 0.0024670858
000030 6b 82 0f bf 09 f9 b7 bd 6c 77 a2 3c cc f1 6d b9
       -0.5605838 -0.089830466 0.019832335 -0.00022692158
000040 e8 eb 45 ba 46 31 52 b9 d1 e3 01 bd 18 ab 69 be
       -0.00075501064 -0.00020045516 -0.031711403 -0.22819173
000050 e9 74 a6 bc d8 95 7f 3e 21 f9 94 3c fe 8a 00 39
       -0.020319419 0.24959505 0.0181852 0.0001225881
000060 ea 96 e6 38 dc ab b1 b9 ce 82 e3 39 fb 7a da be
       0.000109953646 -0.00033888116 0.0004339427 -0.42671952
000070 92 64 cb 3c 68 d3 5d 3d 95 27 c3 bd b6 9c 08 3e
       0.02482823 0.05415669 -0.09529034 0.1334103
000080 ad a4 6d 3d b0 e2 98 bc bf c9 5c 3e 86 79 09 bc
       0.058018375 -0.01866278 0.21561335 -0.00839079
000090 0c 1e 1c 3a 58 db 3d b9 3e 15 01 ba 65 97 10 3a
       0.0005955405 -0.00018106156 -0.0004924125 0.00055157236
0000a0 a7 c9 56 ba 3d 53 5f 39 3b 59 18 b8 f0 e4 80 b9
       -0.00081935007 0.00021297946 -3.6322726e-05 -0.00024584634
0000b0 64 88 e6 39 9b d6 0f 3a 82 8a 95 3a bd 56 ac ba
       0.00043970637 0.0005486996 0.0011409076 -0.0013148409
0000c0 51 38 98 be 7e c8 a3 3c 37 88 9b 3d 88 3a 41 39
       -0.29730466 0.019993063 0.0759434 0.00018427719
0000d0 82 58 c4 ba 49 7a 1e 3b 88 a2 df 38 8c 53 00 b8
       -0.0014979991 0.0024181774 0.000106637424 -3.0595387e-05
0000e0 09 f7 52 39 d8 8f 26 b7 c0 0c fa ba f3 bd 89 bb
       0.00020119188 -9.927862e-06 -0.0019077286 -0.004203552
0000f0 a7 0d bf bd d9 2d b4 3e 9e 38 d5 bd 93 c1 d4 bc
       -0.09328776 0.3519123 -0.104111895 -0.02597121
000100 bf 9e 07 3d b9 e1 c3 3c 7a c8 16 bf 96 42 0d 3c
       0.033110376 0.023911344 -0.5889965 0.008621832
000110 bd 23 a3 3c 19 20 d9 3d c1 99 01 3e 38 4c 90 3c
       0.019914502 0.10601825 0.12656309 0.017614469
000120 66 73 99 bd ff f0 9e 3e 2f 85 a6 3e c7 a8 f9 be
       -0.07492714 0.3104324 0.32523486 -0.4876158
000130 73 c2 ea bd 1a f1 8e bd a4 5d 01 3d 61 50 50 bc
       -0.114628695 -0.0697958 0.031583443 -0.012714476
000140 81 e5 a9 bc a4 58 c2 3a db 86 8e ba 0d 6f d2 3b
       -0.020739319 0.0014827442 -0.001087393 0.0064219297
000150 b2 37 36 39 72 de f9 ba 31 a1 0f 3b d3 54 10 bf
       0.0001737762 -0.0019063486 0.0021916146 -0.5637943
000160 74 77 92 3b 44 72 25 3d a2 be 8a 3b 20 f0 b7 b9
       0.0044698063 0.040392175 0.004234151 -0.00035083387
000170 ba 0c e6 bb b4 68 84 be b4 c7 cd 3d d3 c5 c6 3d
       -0.00702056 -0.25861132 0.10047856 0.09705701
000180 e4 75 b2 3d 27 b5 70 bc 6e 9d 35 3c 7d 55 0b 3d
       0.08713892 -0.014691628 0.011084897 0.034017075
000190 d4 31 d0 bc 68 df dc 3c 92 94 25 bf 49 11 35 bb
       -0.025414385 0.026961997 -0.64679825 -0.002762871
0001a0 82 aa 2a 3d 5b af c8 36 0d a0 73 39 62 54 c5 39
       0.041666515 5.9808785e-06 0.0002323391 0.00037637638
0001b0 aa 56 cc b9 48 f3 9f b7 ec 92 1a 3a 0a fb c1 b8
       -0.00038974482 -1.9067564e-05 0.0005896527 -9.249717e-05
0001c0 04 4c af b9 16 bc 7d b9 2f 4b 22 bf 36 52 b2 bc
       -0.00033435237 -0.00024198028 -0.6339597 -0.021767717
0001d0 69 82 b2 3c 1d c0 bb be ce 40 ca bd e2 42 0b 3c
       0.0217907 -0.36670008 -0.09875642 0.008499833
0001e0 84 6a f4 39 f2 4b ad 38 aa 53 d7 b9 84 d6 d4 be
       0.00046618667 8.263429e-05 -0.0004107033 -0.41569912
0001f0 22 50 17 3d 02 1e 1f 3d 65 76 e3 39 ab 67 a5 ba
       0.036941655 0.038846977 0.00043385025 -0.0012619396
000200 55 72 0b 3a 42 17 30 39 1e 54 47 bb ed 20 bc 3b
       0.0005319466 0.00016793332 -0.0030415128 0.0057412297
000210 93 23 83 bd 11 88 a4 3d 47 74 84 3d 76 28 71 3a
       -0.064032696 0.08033765 0.06467491 0.00091994496
000220 a8 35 92 3a 44 1e 35 bb f7 a5 74 3b 1f 01 04 bc
       0.0011154907 -0.0027636448 0.0037330368 -0.008056908
000230 ec f6 d1 3b 76 5e 0b 3d fe 20 12 3d 0e fb 8d 3c
       0.006407609 0.03402563 0.035675995 0.017331626
000240 01 c2 e8 39 8c fc 79 ba 36 e6 72 bb a0 cb c9 38
       0.00044395032 -0.00095362286 -0.0037063486 9.622355e-05
000250 4a b9 12 38 ef 74 58 ba c1 77 c9 bd 72 6b 81 3e
       3.4981676e-05 -0.00082571706 -0.09837294 0.25277287
000260 82 ac 47 3e 33 ab 39 b8 d7 d9 92 ba 31 11 ee b9
       0.194994 -4.426688e-05 -0.0011203837 -0.00045407706
000270 a8 26 0b bf ff a3 8f bc d8 f6 c3 3b a5 68 31 b9
       -0.5435586 -0.017534254 0.005980354 -0.00016919019
000280 38 bb f2 3a 0a 76 b6 ba 8b e5 a2 b9 a7 fb 44 3b
       0.001851893 -0.0013920676 -0.0003107007 0.0030057223
000290 df 45 84 ba fa ff cc b6 5c 90 0b 3a 93 7d e4 b9
       -0.0010091624 -6.1094734e-06 0.00053239404 -0.0004358111
0002a0 45 cb 22 bf 9f 8c 5a 3d 27 4e 21 3d 90 5e 4c 3a
       -0.63591415 0.053356763 0.039381173 0.00077960733
0002b0 68 cc 66 b9 a4 a2 01 bb 0f 39 d0 be c1 7e 4d 3c
       -0.00022010657 -0.001978078 -0.40668532 0.0125424275
0002c0 a9 88 21 3d 61 4a ee be 84 8b de bb f2 ea 4d 3a
       0.03943697 -0.46541122 -0.006791534 0.0007855139
0002d0 34 bc 87 39 2e 0f 28 3a 54 74 af b9 19 24 f1 ba
       0.0002588943 0.00064109534 -0.00033465272 -0.0018397599
0002e0 8d bb 8c ba 76 91 3c 3b 3c 3a 45 39 e3 d3 db 39
       -0.0010737047 0.0028773225 0.00018809078 0.00041928803
0002f0 02 61 27 ba 28 34 b5 be 2c 37 3d bd 64 87 23 bc
       -0.0006385 -0.35391355 -0.046195194 -0.00998101
000300 b7 e0 50 3e 9b bb cf 3d 66 c9 2c bd fa 15 80 3c
       0.20398222 0.10143205 -0.042184256 0.01563548
000310 13 0a 7a bb 73 90 b7 bc f2 b3 f6 ba 1c a4 e4 b9
       -0.0038152977 -0.022407746 -0.0018821938 -0.0004360982
000320 fa ae 8f b9 b9 10 85 3e 04 9c df 3d 50 29 55 bc
       -0.00027405453 0.2598932 0.109184295 -0.013010338
000330 ce be d6 ba 6f 60 8c ba 9a 5e 3c 3b 1c 0a 6c 3a
       -0.0016383769 -0.0010709892 0.002874291 0.0009004192
000340 6f f5 74 3a 9d ad e0 ba c0 28 c3 3d 39 e7 28 bd
       0.0009344434 -0.0017141585 0.09529257 -0.041236136
000350 b8 2b e7 bd 95 5b d8 3a e5 6e 57 39 6f 7f ef 39
       -0.112876356 0.0016506786 0.00020545309 0.00045680578
000360 2a da 04 3b 42 ce 8e 3a 12 a5 a3 ba 99 07 2e be
       0.0020271637 0.001089521 -0.0012485108 -0.16995086
000370 a6 71 3b 3d 2d 43 be bc 44 70 9e 3e b8 12 1e 3d
       0.04576268 -0.023225391 0.30945027 0.03859207
000380 61 ca b6 3d 8c 03 34 bb 4b a5 87 ba 89 ad 20 3a
       0.089253195 -0.0027467934 -0.0010348944 0.00061293744
000390 bc 3b 13 3e 25 6a 71 be a3 bc 90 3d 69 1b 00 3e
       0.14378256 -0.23575647 0.070672296 0.12510456
0003a0 46 3c bd 3d b5 e5 a0 bd 80 5c 68 bf 16 c5 18 3d
       0.09240012 -0.07856313 -0.90766144 0.03729733
0003b0 eb f5 3d bb 45 2c 37 3e ff 7c d4 3d c5 8f f4 bd
       -0.002898569 0.17887981 0.103754036 -0.11941484
0003c0 ff d5 b4 3a 01 72 00 3b ac 09 7c ba df 80 33 3e
       0.0013796686 0.0019599202 -0.00096144783 0.17529629
0003d0 ba ed b6 3d 3b 27 83 bd cf 37 58 bf c8 6f 72 3d
       0.089320615 -0.06403967 -0.8446016 0.059188634
0003e0 03 b0 8a bc 13 21 3f bb 19 d0 27 bb 6b ac bc 3b
       -0.016929632 -0.0029164 -0.0025606214 0.0057578585
0003f0 4a a3 82 3e f8 37 1a 3e a9 55 a8 bd 4c 37 0c 3e
       0.25515205 0.15060413 -0.082194634 0.13692969

conv2.att_src f4 [1, 1, 64]
000000 a3 53 d4 3d 13 09 bb 3b d2 70 39 3b f7 e2 e1 bb
       0.10367515 0.005707869 0.0028296006 -0.0068935114
000010 d5 b2 1c be 76 0f e5 3d 8a 4e a7 3b 0b 0c 99 3b
       -0.15302594 0.111845896 0.005105798 0.004670625
000020 78 61 4b bb 47 f6 f4 ba 6f 00 17 3c f5 da 8e ba
       -0.0031033438 -0.0018689119 0.009216412 -0.0010898995
000030 56 b1 fc ba 68 67 59 be e3 8f 1d 3e 60 69 d3 bb
       -0.0019278924 -0.21230853 0.1538692 -0.0064517707
000040 30 69 81 3d 7e 1c 02 3d 28 ba bd 3d 9e 34 90 3b
       0.06318891 0.031765454 0.09264022 0.0044008037
000050 b3 90 7e 3d 9f db 27 bd 34 74 54 3e 0f 59 25 3e
       0.062149715 -0.04098093 0.20747453 0.16147254
000060 10 4d 58 3b 77 6d b4 bb 5e 2a 21 be e5 d1 11 be
       0.0033004917 -0.0055062133 -0.15738818 -0.14240225
000070 08 f3 3b be f0 a3 4a ba d3 f7 9e be 31 bb da bb
       -0.18354428 -0.0007730117 -0.3104845 -0.006675147
000080 6e 71 68 3a df 97 81 be 83 ce 6c 3a 6b da 1c 3e
       0.0008867 -0.2531118 0.0009033458 0.15317695
000090 64 b8 f8 3a d5 0f 4a bd 4d 56 5c bb c5 32 37 3b
       0.0018975851 -0.049331505 -0.0033620775 0.0027953845
0000a0 17 6b 25 be 32 00 8a 3b c3 87 18 be d4 99 d1 3c
       -0.16154133 0.004211449 -0.14895539 0.025586046
0000b0 72 ee 59 3d a2 49 fd ba c4 dc e5 bb 99 f8 91 bb
       0.053205915 -0.0019324312 -0.0070148427 -0.004454684
0000c0 a1 3f 01 3e 2d 4a 25 bc ea 52 70 39 d7 53 b0 3a
       0.12621929 -0.010088486 0.00022919071 0.0013452721
0000d0 e6 f4 00 be 3d 5a ac bd 38 6c d9 3a 8f 17 2a 3a
       -0.12593421 -0.08415649 0.0016588038 0.0006488496
0000e0 4d c4 bb bc 14 53 07 3b 87 fb 98 3b 03 95 cc 3b
       -0.022920752 0.0020648884 0.0046686563 0.0062433495
0000f0 50 a6 69 ba 76 fc 69 bb 23 5b 5b be 95 0a 26 bb
       -0.0008913027 -0.0035703457 -0.21421485 -0.0025335897

conv2.att_dst f4 [1, 1, 64]
000000 40 50 73 be 3d d9 7c 3c 60 42 09 3c bd 7c 0c bc
       -0.23761082 0.015432653 0.008377641 -0.008574662
000010 5c 0a 8d 3d f3 1a ee 3c 6a 7a 77 3c 92 9f 85 3c
       0.068867415 0.029065585 0.015104869 0.01631144
000020 5f 92 e4 3b 0a b0 c2 b9 67 82 9b 3c b4 28 cd bb
       0.0069754566 -0.00037133723 0.01898308 -0.0062609557
000030 35 4a 5a bc ee 58 03 3e c0 20 47 bd 92 7c 5f bd
       -0.013323356 0.12826893 -0.048615217 -0.05456216
000040 95 a8 b3 3c b5 3d 6a bd 23 c3 21 be 21 ea 09 3c
       0.021930972 -0.057187755 -0.15797095 0.008417637
000050 5b 2c 53 be 23 50 45 3e 36 e1 db bd 13 65 04 3e
       -0.20622389 0.19268851 -0.10736315 0.12929182
000060 01 bb 31 3d 13 64 82 bb dd 61 d7 bd 41 96 a3 3d
       0.04339123 -0.003979215 -0.10516713 0.07987643
000070 b0 e7 10 3e f8 17 98 ba fa e3 bd 3d e5 36 5c bc
       0.14150882 -0.0011603823 0.09271999 -0.013440822
000080 71 ba 2c 3b 9e ba f6 bc 7f 42 27 3d e3 be 53 be
       0.0026356245 -0.030118283 0.0408349 -0.20678286
000090 16 d5 4f bb 80 f6 96 3d 24 16 5a bc 62 c5 cb 3b
       -0.0031712702 0.07371235 -0.013310943 0.006218598
0000a0 3e a2 b9 bd 1a 1b 10 3c 1b 65 8a 3d 5a 5f 16 be
       -0.09064148 0.008795524 0.067575656 -0.14684811
0000b0 78 63 29 be 7f 29 d0 bb 7c 05 5f 3a d1 9b 5c bc
       -0.1654185 -0.006352603 0.0008507592 -0.013464884
0000c0 1c 50 8c bd b1 8f a5 bd a9 fe 12 3b 8a 95 38 3b
       -0.06851217 -0.080840476 0.0022429621 0.0028165304
0000d0 3b 51 46 bd 6d 9c 55 bd 04 5e d7 3b 77 d3 9a 3c
       -0.04841731 -0.052151132 0.006572487 0.018899662
0000e0 dc f6 97 bb 7a 48 5f 3b 7f 93 35 3c d2 f8 a5 3c
       -0.004637582 0.00340703 0.011082529 0.020260248
0000f0 87 fd 5d 3c 76 79 0e bb be 32 11 3e 1f c9 d4 3b
       0.013549215 -0.0021739877 0.14179513 0.006493702

conv2.bias f4 [64]
000000 64 88 db bc 3b 06 24 3c c1 50 0b 3c 9e c0 48 bc
       -0.026798435 0.010011251 0.00850314 -0.012252955
000010 0a 51 97 bd 6b 1b b5 3d ba 41 f1 3a e9 4a 2b 3c
       -0.07388504 0.0884312 0.0018406429 0.010454872
000020 33 ea 0b bd 9a 62 95 3b 05 17 e1 3b a7 ee 64 bb
       -0.034158897 0.0045588734 0.006869199 -0.0034932287
000030 a7 5a 27 bc 33 6b ca 3c 16 1a e9 3c a1 92 d7 bb
       -0.010214484 0.02470932 0.028454822 -0.006578759
000040 80 d6 5b 3d 7b 2e d1 bc ea 01 50 bc f8 57 0b 3c
       0.05367136 -0.025534859 -0.012695769 0.00850486
000050 c8 65 07 3e 17 2a d5 bc 47 e8 73 bd ef 66 8f bc
       0.1322242 -0.026021047 -0.05954769 -0.017505137
000060 c7 2e 6d 3b 73 01 06 3c 3e e0 6e 3d 89 00 47 3d
       0.0036191212 0.008179056 0.058319323 0.048584495
000070 8b 27 cf bb c7 37 0c 3c c5 05 1b bd f0 3d c9 bb
       -0.0063218526 0.00855822 -0.0378473 -0.0061414167
000080 0f 79 54 3c 82 71 f2 bd 80 65 ac bc ca 21 7a 3d
       0.012968316 -0.11838056 -0.021044493 0.06106738
000090 7d 82 38 bb 7a 9c b6 bd e1 04 d7 3b 14 e9 8f bb
       -0.002815395 -0.08916564 0.006561861 -0.0043917987
0000a0 ed a0 bb 3a 2f d2 93 bb 43 81 ed 3d 91 2f 23 bd
       0.0014314927 -0.00451114 0.1159692 -0.039840285
0000b0 9f 26 a3 3c 7b 01 00 3c bf 2e 2b 3c 94 10 1b 3c
       0.019915877 0.007812853 0.010448157 0.009464402
0000c0 66 cc 51 bb 0a 8a 2c 3d a6 15 05 3b d7 d8 ee 3b
       -0.00320127 0.04212383 0.0020307093 0.007289033
0000d0 1c e0 c1 3c 98 01 34 bd a1 be 97 3b 67 7a fc bb
       0.023666434 -0.043946832 0.004630879 -0.007705021
0000e0 bd 2d 2c 3c db 3d 1b bc df 17 00 3c e5 2e 00 3c
       0.010508952 -0.009475197 0.007818191 0.0078236805
0000f0 78 47 37 bc 9a 9f 17 3c 0d 07 52 3d 30 36 05 bb
       -0.011186473 0.009254361 0.051276255 -0.0020326488

conv2.lin.weight f4 [64, 256]
000000 4c 7f b6 bb 66 c6 b3 ba 02 2e 2f 3d 68 f3 e5 3a
       -0.005569374 -0.0013715744 0.042768486 0.0017543854
000010 26 71 c9 3d 9e 96 76 b9 ce 3e e2 3c 4b 61 05 3c
       0.098360345 -0.00023516497 0.027617838 0.008140872
000020 fe b3 3e ba 5e ab f8 3c c2 0f b3 bc 84 25 6f bc
       -0.0007274746 0.030355152 -0.0218581 -0.014596347
000030 07 e4 73 3a ca 36 58 ba 6f 7c d4 ba 0f 76 ca 39
       0.0009303693 -0.00082479103 -0.00162114 0.00038616403
000040 2f ec 47 bc 6e 25 e0 ba 20 af db b9 66 25 67 bb
       -0.012202307 -0.0017100999 -0.00041901413 -0.0035270094
000050 02 28 be bc 14 6e f4 bb 3a 9c 4a 3c 3b 4c c8 bc
       -0.023212437 -0.0074594114 0.012366349 -0.024450412
000060 b4 82 96 bc 67 78 53 3c 27 9b 15 bc 87 8c ac 3a
       -0.018372871 0.012907124 -0.0091312295 0.0013164439
000070 9f 0f fe ba 6b 4d 1e 3d 7e 99 88 bb 01 7f a0 bc
       -0.0019383318 0.03864805 -0.0041686883 -0.01959181
000080 5e 17 ea 3b bd 53 42 bb c7 2c b0 3c ad fd a8 b9
       0.007143899 -0.0029651963 0.021505727 -0.0003223246
000090 fa c0 b9 b9 0d a0 9c 3a b0 56 25 3d d6 0c 3b 3d
       -0.00035429728 0.0011949554 0.040365875 0.04566654
0000a0 d8 7c b9 b9 6c aa 34 3b 11 54 0e bb 5b 93 89 bb
       -0.00035378966 0.00275674 -0.0021717588 -0.0041984743
0000b0 1e 21 af bc b2 72 7f ba 4f ac ad 39 be 6b d5 ba
       -0.021378096 -0.0009744569 0.0003312551 -0.001628272
0000c0 7c df 3c b9 72 af 3b 39 ba 77 7f bd 28 86 78 ba
       -0.00018012332 0.00017899068 -0.06237004 -0.000948044
0000d0 1f f7 41 3d 91 70 29 3b 1b 41 bd b8 a6 33 46 39
       0.047354814 0.0025854448 -9.024349e-05 0.00018901992
0000e0 75 4d 00 3d e5 d8 84 ba d0 ca c7 3c c9 4b 5b 3c
       0.03132387 -0.001013544 0.0243887 0.013384768
0000f0 cb 29 64 b9 83 c2 f7 b9 e4 c5 a7 37 cc 9a 90 3c
       -0.00021759344 -0.00047256434 2.0000101e-05 0.017651938
000100 06 8b ae 3c 6e 2b da bb f4 c8 a2 ba 2e b4 b5 3d
       0.021306526 -0.0066580093 -0.0012419508 0.08872257
000110 a1 2d f3 39 7b 82 88 39 91 9a cb bc 66 37 0c 3a
       0.00046382568 0.00026037157 -0.024853976 0.0005348831
000120 23 3f 82 3a c1 9c 81 3c d0 03 ee 3d 28 c4 51 ba
       0.0009937029 0.015821816 0.11621821 -0.0008001947
000130 56 f1 8d bc f4 35 57 bd 38 c9 0c bc cb 8c c8 bc
       -0.017326992 -0.052541688 -0.008592896 -0.024481198
000140 40 fa 74 b7 19 2f f9 3b 19 6e 08 bb 3b 0e 6f 3b
       -1.4601799e-05 0.0076044914 -0.0020817576 0.0036476988
000150 9b 5d 95 3c e6 9c f4 3b 07 24 67 ba 2c 19 70 3c
       0.018233111 0.007464993 -0.0008817319 0.014654439
000160 51 e9 a5 3c dc 23 f8 3c 45 33 35 3c 64 8b d9 bc
       0.020252855 0.030290537 0.011059587 -0.026555724
000170 ec 7f 46 3a c9 91 52 3d 49 ec b7 ba 77 5c a0 3c
       0.00075721624 0.051408563 -0.001403221 0.01957534
000180 6a f4 80 b8 e6 b5 0d 3d 32 83 ac 3d 28 4a 29 3d
       -6.149041e-05 0.0345973 0.08423461 0.041330487
000190 5b 01 04 bc b8 60 57 3c 7b 63 0b 3a 6c 92 b9 3c
       -0.008056964 0.013145618 0.0005317253 0.022652827
0001a0 60 bc a4 b9 89 cf 60 bd 26 70 b7 3d 34 19 06 bc
       -0.00031420868 -0.05488542 0.089569375 -0.00818472
0001b0 00 4a 86 bc 71 f9 02 3b 4d bb 83 bc 63 db 09 ba
       -0.016392708 0.0019985104 -0.016080523 -0.00052588264
0001c0 8b 3c 44 3d 95 e6 b4 3c 95 87 da 3a 84 01 10 3a
       0.0479093 0.022082606 0.0016672487 0.000549339
0001d0 98 de 0f ba 4b 13 e4 3b e7 ac 40 bd a2 cf d2 3b
       -0.0005488186 0.0069603077 -0.047039893 0.006433443
0001e0 6e ac 8b bd f3 8d 83 3d fe c1 00 bc bd cf 68 ba
       -0.06819998 0.06423559 -0.007858751 -0.0008881053
0001f0 c3 1c cc bc ac 38 b2 3c af c1 e0 bc bc 7a 64 b9
       -0.024916058 0.021755539 -0.027436106 -0.00021789497
000200 cc 26 bf bb 7b d6 a3 3d ef 46 d8 bc b1 bc 87 3c
       -0.0058334824 0.07999893 -0.026401011 0.016569467
000210 90 fc 0d bb b7 ee 0d 3b b2 95 dc 3c e7 13 47 bd
       -0.0021665432 0.0021657178 0.026926849 -0.048602965
000220 1c db 54 3c f8 ac 5d bd 52 bf ea bc b9 73 b9 3a
       0.012991693 -0.054120034 -0.028655682 0.0014148868
000230 ed 39 0a bd 06 77 a8 3b df 09 ee 3d 7c f4 89 bd
       -0.03374665 0.005141142 0.116229765 -0.06736085
000240 2e d3 6f 3d 4c 64 d3 ba fe 5d 89 bb 98 1c c4 3c
       0.058551006 -0.0016127913 -0.004192113 0.023939416
000250 ca 0b 8f 3c 43 12 74 3d 64 02 3f bd cb 39 59 3d
       0.017461676 0.05958773 -0.04663314 0.05303363
000260 7c 9c 16 b9 2e e0 a4 3c 65 8e a5 bb e2 f1 fa bc
       -0.0001436341 0.020126428 -0.005052375 -0.030632917
000270 6f 0d 19 bd 02 f6 04 bd d3 2d c3 3c ad ab 46 bc
       -0.037366327 -0.032461174 0.023825562 -0.012125892
000280 48 ba 82 bb 46 15 84 bd 1c 33 fb 39 0a 8b 1f bd
       -0.0039894916 -0.0644937 0.0004791253 -0.038950957
000290 4f 6b 1f 3d 05 93 b6 bd 1b 44 9d 3a 07 80 32 bc
       0.038920697 -0.089147605 0.0011998446 -0.010894782
0002a0 10 2f aa 3c 0f aa a1 ba 12 6f 8e 3d 0c 0d 42 b9
       0.020774394 -0.0012334007 0.06954779 -0.00018506142
0002b0 ad ba d3 3c bb 21 d7 3c 44 10 be 3c fe 4c 53 3c
       0.02584585 0.026261201 0.023201115 0.012896774
0002c0 fe 4b 4d bb ac ff 63 bb b0 9d 85 3b 29 c8 48 bd
       -0.0031325812 -0.0034789843 0.0040776357 -0.049019013
0002d0 16 25 6e ba 40 31 33 3d 42 93 fe bc 43 fa df bc
       -0.0009084506 0.04374814 -0.031076077 -0.027341014
0002e0 b0 51 8a bb 4f 3b b5 3d cc c3 0e 39 29 8f ab 3c
       -0.0042211637 0.08849203 0.00013615115 0.020942288
0002f0 39 70 d2 37 b2 15 80 3d 86 7f f7 3c 9b b6 d5 bd
       2.5086209e-05 0.06254138 0.030212175 -0.1043522
000300 1d 1e cf ba e0 57 65 bd c9 40 96 bd 57 9a 8a ba
       -0.0015801821 -0.055992007 -0.073365755 -0.0010574561
000310 7f 28 e4 3c 95 e1 00 3b b2 3f ee bd 95 9d 21 bd
       0.027851341 0.0019665707 -0.11633243 -0.039456923
000320 0d 09 ed bc 53 39 e0 b9 af 6c b6 39 e2 b0 a8 bd
       -0.02893498 -0.0004276732 0.0003479472 -0.08236863
000330 86 48 d9 bb 86 e8 30 3d 4d 66 bb bd 45 ef a3 3a
       -0.00663096 0.0431905 -0.09150372 0.0012507221
000340 a4 04 97 b9 07 ac 2f 3d 17 ed 43 3b 13 ce 2f bb
       -0.00028804422 0.042888667 0.0029895955 -0.002682571
000350 6b 03 88 bd 88 4a 54 bb af 07 af ba 30 80 01 bd
       -0.06641277 -0.0032393057 -0.001335373 -0.03161639
000360 2a 70 9d 3d 3c fc 77 3d 68 71 96 bd cb 23 7b bd
       0.07687409 0.060543284 -0.07345849 -0.06131343
000370 90 6b 4e bd 53 11 01 bb 56 cf 0a 3c dd ee 16 3a
       -0.05039555 -0.0019694164 0.008472284 0.00057576393
000380 3a 52 9e 3a cb 73 9b bd 0f 45 c0 3a 31 a7 ed b9
       0.0012078949 -0.07590445 0.0014669019 -0.0004532873
000390 59 a1 80 39 94 06 66 ba dc 38 94 3c db 54 a0 bd
       0.00024534276 -0.0008774784 0.018093519 -0.07828685
0003a0 6c 30 97 bd 5c 48 61 bd fa 45 28 bd c0 0c 30 bd
       -0.073822826 -0.055000648 -0.04108236 -0.04298091
0003b0 5d 1a 14 bd 32 27 c4 bd dd 1b 30 bd 2e cf af 3a
       -0.036157954 -0.095777884 -0.042995322 0.0013413185
0003c0 2b b4 cf 38 f3 4b 9f bb f5 12 e1 bb f8 ed 4c bd
       9.904088e-05 -0.004861349 -0.006868715 -0.050031632
0003d0 a2 bd a7 bc c4 63 66 3d cb 36 15 bd e8 b4 5b bd
       -0.020476166 0.056247488 -0.036429208 -0.053639323
0003e0 55 60 75 bd 35 74 2a bd 41 87 9a ba 81 fb 51 37
       -0.059906323 -0.04161473 -0.0011789576 1.2515929e-05
0003f0 d8 e9 2d 3a e0 11 ed 3c 63 16 97 3c a4 c0 e6 39
       0.00066342717 0.028939188 0.018443292 0.00044012547

lin.weight f4 [4, 64]
000000 00 2c 51 bd a3 90 d5 bb eb 44 41 3c ca 82 f8 3b
       -0.051067352 -0.006517486 0.0117962165 0.0075839506
000010 a8 5b 89 3c cf cb e7 3a dc fd 23 3c 51 fe 1c 3d
       0.016767338 0.0017684641 0.010009255 0.038328473
000020 07 a5 d9 bb 8b 99 eb 3b d2 4b 1c 3d f8 51 83 3d
       -0.0066419872 0.0071899346 0.038158245 0.06412119
000030 ed 32 e4 bc 0c 4f 1c 3e 23 19 01 be 3b d8 59 3c
       -0.027856315 0.15264529 -0.12607245 0.013296182
000040 5d c8 92 bd e0 b4 a4 bd 03 ad 03 3e 55 aa c9 3c
       -0.071671225 -0.08042312 0.12858967 0.024617353
000050 e8 10 9c 3c d2 42 a7 3b 90 ff 95 3d cf 45 1f 3e
       0.01905103 0.005104401 0.07324135 0.15553974
000060 e1 cb 2d 3a 6e 2a 40 ba 23 2f ff 3c 30 20 a4 3c
       0.00066298066 -0.0007330541 0.031150406 0.02003488
000070 b0 e2 9d 3c 05 df 7d bd 15 cd df bd 41 3e d4 3b
       0.019273132 -0.061980266 -0.10927788 0.006477148
000080 21 22 52 bd f0 90 11 3e 5b ed 49 bd 13 28 6f 3c
       -0.05130208 0.14215446 -0.049298625 0.014596957
000090 72 06 26 3d 10 01 72 bc 30 ae 9b 3b 36 32 08 bc
       0.04053349 -0.014770761 0.0047509894 -0.0083127525
0000a0 18 98 9f bd 7d ae 62 3b 01 bf 3b 3d 56 bc dc bc
       -0.077926815 0.0034588866 0.045836452 -0.026945274
0000b0 80 89 48 3d 01 93 e8 3c 9b 8b b9 ba 2f 30 be bb
       0.048959255 0.02839041 -0.0014155986 -0.005804084
0000c0 c2 51 6a 3d fd 0a 8b 3d b2 f9 80 bc 10 80 20 3c
       0.057206877 0.06789205 -0.015744064 0.0097961575
0000d0 64 26 e5 3d 64 2b ae bd 57 40 9e 3c cb c9 af 3c
       0.11188963 -0.0850437 0.019317789 0.021458527
0000e0 4a ce 01 be 50 e9 b9 3c 3a b6 53 bd f8 42 13 3a
       -0.1267635 0.02269426 -0.051687457 0.0005617584
0000f0 a0 2f 1d 3d ff da 0d 3d 92 2d 30 be 09 40 50 3b
       0.038375497 0.03463268 -0.17204884 0.003177645
000100 8e 2c 17 bd 99 41 37 bc 05 0d da 3b 31 ef 2d 3c
       -0.036907725 -0.011185073 0.006654384 0.01061611
000110 5b 7d a8 3d 78 59 fe bc 18 d7 a7 3b 58 e5 09 3d
       0.08227035 -0.031048521 0.0051220767 0.033665985
000120 07 62 36 bb f0 4c e3 3b 72 2d 0c 3d 1f 9a 7f 3d
       -0.0027829425 0.006936662 0.034223028 0.06240284
000130 a3 2c c0 bc 7b 6e 64 3d bf 84 2d 3d 97 09 7d 3c
       -0.023458784 0.055769425 0.042362925 0.015444181
000140 2b 8e f6 3d f7 8f 7e 3d a8 43 36 bd 04 f0 9d 3c
       0.12038835 0.062149014 -0.044498116 0.019279487
000150 96 43 29 bd 8e e3 5d 3c 37 6a b6 3d 57 6c b8 3d
       -0.04132422 0.013543023 0.089069776 0.09005039
000160 c8 fa 3f ba 8e eb 4b b9 de 18 31 3d c4 40 76 3c
       -0.0007323441 -0.0001944734 0.043236606 0.01503009
000170 71 ea 58 3b 6f de 81 bd db 17 c8 bc ad a5 24 3c
       0.0033098722 -0.06341254 -0.024425438 0.010049266
000180 28 77 65 bd a7 e5 e1 bd 45 24 4f bd 6a 41 27 bc
       -0.05602184 -0.11030131 -0.0505717 -0.010208467
000190 c0 b4 25 3d 7c c4 68 bd ba 06 af 3b 07 27 1f bc
       0.04045558 -0.056828007 0.005341378 -0.009713895
0001a0 95 fa 70 3d 57 ba 17 3b 46 62 19 bd a9 70 8e bc
       0.058832724 0.0023151839 -0.037447236 -0.017387705
0001b0 cf 25 32 3d 1b 16 e3 3c d8 15 70 b8 64 ae 9a bb
       0.04349309 0.027720502 -5.7240803e-05 -0.004720496
0001c0 c0 fb 32 3d 00 de 81 3d ca 49 82 bc 6f 95 ff 3b
       0.04369712 0.06341171 -0.015904326 0.0077997963
0001d0 08 76 54 3d eb ae 86 bd cf 36 9b 3c 1f 8b b3 3c
       0.051870376 -0.06576332 0.018947033 0.021916924
0001e0 6e 45 42 bc b1 3c c0 3c 65 a4 63 bd ab a6 4f bb
       -0.011857374 0.02346644 -0.0555767 -0.0031685035
0001f0 25 07 24 3d 33 aa 17 3d 79 d0 e2 3d ca 90 8b 3b
       0.040045876 0.03702755 0.11074919 0.0042592036
000200 a5 8f 78 bd 2a fa fb bb 74 ec 2b 3c 68 fc e4 3b
       -0.060683865 -0.007689734 0.010493387 0.006988097
000210 df 74 a9 bd ab 47 b9 bb c9 7c 06 3c f5 27 18 3d
       -0.082742445 -0.0056542954 0.008208462 0.03714748
000220 b1 1f b6 bb 37 e4 da 3b 39 c7 14 3d ef 8d 82 3d
       -0.005557977 0.0066800374 0.036322806 0.06374728
000230 02 33 de bc f6 1a d0 bc 15 bd 1a 3d 2a 34 33 3c
       -0.027123932 -0.025403481 0.03777798 0.01093773
000240 74 e4 06 be 9b c2 91 3d 20 00 73 bc 0e 8c c3 3c
       -0.13173085 0.07117196 -0.014831573 0.023870494
000250 d6 f6 b1 3b 89 2f 4d 3c f7 18 43 3d ab 5a 7d be
       0.0054310365 0.01252354 0.04763123 -0.24741618
000260 e2 8b 74 3b fc db 78 ba e1 8c 47 3d 80 57 ef 3c
       0.0037314822 -0.00094932294 0.048718337 0.029216528
000270 3d 37 89 3d 20 a3 81 bd c9 85 d1 3d 82 aa 16 3c
       0.06699989 -0.06329942 0.102305956 0.009195926
000280 7a 57 54 bd fb 74 3f be 64 3d 4b bd 05 6d 09 bc
       -0.051841237 -0.18696968 -0.049619094 -0.008387809
000290 ba a9 28 3d 2b 82 6a bd 3b 12 b1 3b 61 d5 12 bc
       0.04117749 -0.057253044 0.0054037846 -0.008962006
0002a0 de 2a d2 bc 6c 4a 4a 3b 1e 66 4c 3d 9b b9 ed bc
       -0.025655206 0.0030867113 0.049902074 -0.029019168
0002b0 47 b3 2e 3d 2e 9c e1 3c fe 15 08 bb d3 47 a5 bb
       0.04265144 0.027540293 -0.0020765061 -0.0050439625
0002c0 61 7c 29 3d 03 55 81 3d b5 72 ab bc 70 b4 9d 3b
       0.041378383 0.06315043 -0.02092872 0.0048127696
0002d0 b8 36 d1 bd b5 65 f3 bc fe 43 a0 3c b7 24 a5 3c
       -0.10215515 -0.029711584 0.019563671 0.020159109
0002e0 92 bc a6 3d 9c a7 be 3c e8 f0 58 bd 45 4c 9c ba
       0.08141436 0.023273282 -0.05296412 -0.0011924586
0002f0 bf 9c 18 3d ed 6f 0e 3d 63 c2 ee 3d 22 dd 6f 3b
       0.03725886 0.03477471 0.1165817 0.0036600311
000300 6b 35 8a bc 16 c2 db 3a 7a 92 94 3c b7 53 4a b9
       -0.016871175 0.0016766216 0.018136252 -0.00019295407
000310 6b 51 b5 3d dc 78 7f bc 6f af 9e 3c a0 11 3e 3d
       0.0885342 -0.01559278 0.019370763 0.046403527
000320 cf fd 00 bc f1 42 00 3c 92 78 46 3d ba 66 83 3d
       -0.007873013 0.00782846 0.04845483 0.06416078
000330 3f 82 0d bd d6 a9 0c bd dd e5 01 3d c8 d1 b6 3b
       -0.03454804 -0.034341656 0.031713355 0.005579207
000340 b9 d2 6e bd ec 06 0c 3e 02 95 d2 bc cc d1 04 3d
       -0.05830643 0.13674515 -0.025705818 0.03242664
000350 28 97 2b bd 13 d8 b6 3b 6e 61 e9 3d e9 b7 04 3d
       -0.0418922 0.0055799573 0.11395536 0.032401953
000360 8f 96 ca 3b 05 14 ad bb 63 84 96 3b 25 45 ea bb
       0.0061824988 -0.0052819275 0.0045934184 -0.007149356
000370 34 5d 48 3d 58 4b 77 bd 3b 6e ad 3d cb ac 23 bb
       0.04891701 -0.060374588 0.084682904 -0.0024974819
000380 cb eb 3c bd 11 d2 0e 3d b8 a1 1b bd b2 7b b4 ba
       -0.046123307 0.034868304 -0.037996024 -0.0013769774
000390 38 8d 21 3d 1d 40 08 bc 2b f8 46 ba 57 62 59 bb
       0.039441317 -0.008316067 -0.00075900805 -0.0033170187
0003a0 41 b3 97 3b 3d bf 10 3c bf d5 0b be bd 3d f3 ba
       0.004629523 0.008834657 -0.13655756 -0.0018557828
0003b0 ed 66 61 3d b2 b2 e5 3c 53 0d 70 bb 36 b9 48 bc
       0.0550298 0.02803931 -0.0036629036 -0.012251189
0003c0 aa 2d 49 3d c0 6a 5a 3d 86 79 21 bc 21 4e 7d 3c
       0.049115814 0.05332446 -0.009855634 0.015460522
0003d0 3f ef 36 bd 55 fc 14 3d 36 12 9b 3c 03 a8 db 3c
       -0.044661757 0.036373455 0.018929582 0.026813513
0003e0 6e db 87 3c 79 dc ba 3c 78 34 2f bd 35 0d 20 3c
       0.016584124 0.022810208 -0.042774647 0.009768774
0003f0 79 01 2c 3d 63 2f f4 3c b5 81 de 3c 68 d2 6a 39
       0.041993592 0.029807752 0.027161459 0.00022394361

lin.bias f4 [4]
000000 8c 74 42 bc 31 a9 17 3e a8 9a 4e 3b ac 69 9a be
       -0.011868607 0.14810635 0.0031525288 -0.30158746
